tutorials/cloud_deployment/aws_sagemaker/gat_cora/model.pth (torch, 372175 bytes, 10 tensors)

layers.0.att_src f4 [1, 8, 8]
0	0x3e9a37ad	0.30120602
1	0x3e318b90	0.17338395
2	0xbe4e2adf	-0.20133542
3	0xbe33f325	-0.17573221
4	0xbf0a4529	-0.5401178
5	0x3e59c923	0.21268134
6	0x3d6634b6	0.056202613
7	0xbdcfdad8	-0.10149163
8	0xbe5d09ae	-0.21585724
9	0x3d9215ad	0.071330406
10	0x3e2cc9d1	0.16873862
11	0xbed10a5f	-0.40828225
12	0xbde95940	-0.11393976
13	0x3eb3e1ff	0.3513336
14	0x3ed314bb	0.41226754
15	0xbde3cff1	-0.11123646
16	0x3f0df626	0.5545372
17	0xbb7ce53c	-0.0038588783
18	0xbf0b5878	-0.5443187
19	0xbe0a31b3	-0.13495521
20	0xbf0496e5	-0.51792747
21	0x3e5a94c5	0.21345814
22	0xbf064236	-0.5244478
23	0x3ef49f42	0.47777754
24	0x3e2e486a	0.17019811
25	0x3d6e86fd	0.058234204
26	0xbda97b4b	-0.082754694
27	0x3f12e889	0.5738607
28	0xbeb36416	-0.35037297
29	0xba85e170	-0.001021428
30	0xbd9a5812	-0.07536329
31	0xbdf1f411	-0.1181413
32	0x3eb2e78d	0.34942284
33	0xbe379730	-0.17928767
34	0xbe64dbba	-0.22349444
35	0xbec1a9a5	-0.3782474
36	0x3dfb8355	0.12280909
37	0xbe81c94a	-0.25348884
38	0x3e8460f2	0.25855213
39	0x3e8b0c77	0.27157947
40	0x3f08d6c6	0.5345272
41	0x3eb0efa7	0.3455784
42	0x3da3851a	0.079843715
43	0xbf1738ab	-0.59070843
44	0xbd57bf62	-0.05267275
45	0xbe226164	-0.15857464
46	0xbeece81b	-0.46270832
47	0x3d9af450	0.0756613
48	0xbe115af7	-0.14194857
49	0xbf0371ab	-0.5134532
50	0x3ed1b589	0.40958813
51	0xbe5d7b24	-0.21629006
52	0x3f01642e	0.5054349
53	0xbef39284	-0.4757272
54	0xbf138e1a	-0.57638705
55	0xbe93474c	-0.28765333
56	0xbda5be7f	-0.08092975
57	0x3dc17f48	0.09448105
58	0xbed284b7	-0.41116878
59	0x3ee00377	0.43752643
60	0xbe9fa4f8	-0.3118055
61	0x3f09b22c	0.53787494
62	0x3ee6d8e3	0.45087346
63	0x3e13fb06	0.14451227

layers.0.att_dst f4 [1, 8, 8]
0	0x3d878b1b	0.06618329
1	0x3ef8feef	0.48632
2	0xbef5933e	-0.479639
3	0x3daaadfe	0.083339676
4	0x3e8554ff	0.2604141
5	0x3e938bce	0.288176
6	0x3e4c7b66	0.19968948
7	0x3ef4338d	0.4769558
8	0xbdabb799	-0.08384628
9	0x3ec650fe	0.38733667
10	0xbe6539da	-0.2238535
11	0xbe5cd26f	-0.21564649
12	0xbe29f67d	-0.16597934
13	0x3e8310c0	0.25598717
14	0x3ed6d005	0.4195558
15	0xbecef999	-0.40424803
16	0xbe7f822b	-0.24951999
17	0x3ed5cb8f	0.41756865
18	0xbe228b6f	-0.15873502
19	0x3d7213ce	0.05910092
20	0xbe6599ac	-0.22421902
21	0xbeecfd45	-0.4628698
22	0x3e9d92d0	0.30776072
23	0xbda36f63	-0.0798023
24	0xbe40d5e4	-0.18831593
25	0xbec1bac3	-0.378378
26	0xbe9b1a5c	-0.30293548
27	0x3ea5f133	0.32410583
28	0xbea08171	-0.31348756
29	0xbe3e8470	-0.18605208
30	0xbec93707	-0.39299795
31	0x3ebbb6a6	0.36662787
32	0xbde03c97	-0.109490566
33	0x3e28e39d	0.16493078
34	0xbeed247a	-0.46316892
35	0x3ea8ad53	0.32944736
36	0x3d6697e7	0.05629721
37	0xbdbb1d26	-0.09136419
38	0xbee1811b	-0.44043812
39	0xbea7cfba	-0.3277567
40	0x3f010c40	0.50409317
41	0xbec2b08c	-0.3802532
42	0x3e9247e4	0.28570473
43	0xbdc119f7	-0.094287805
44	0xbc84b0ab	-0.016197523
45	0x3e2884ae	0.16456863
46	0x3d8870d1	0.06662143
47	0x3e83b2b0	0.25722265
48	0xbeea2573	-0.45731696
49	0x3e687bf9	0.22703542
50	0x3e687fb3	0.22704963
51	0x3ef7160a	0.48259002
52	0x3e6c73be	0.23091027
53	0xbebbaaee	-0.36653847
54	0x3f0e48b1	0.5557967
55	0xbeeb4899	-0.45953825
56	0x3ec03140	0.37537575
57	0x3e42dc6e	0.190294
58	0xbea82a53	-0.3284479
59	0x3eb15611	0.34635976
60	0x3e2f6b3b	0.17130749
61	0xbd2d67e1	-0.042335395
62	0xbecd3e63	-0.4008666
63	0xbd1f0f04	-0.03883268

layers.0.bias f4 [64]
0	0xbb89d0c2	-0.004205794
1	0xbd05fb66	-0.032710455
2	0xbc51d237	-0.012806467
3	0x3af598ce	0.0018737556
4	0x3d613085	0.054977912
5	0x3d7360e2	0.059418567
6	0x3b205341	0.0024463686
7	0x3ce49cd3	0.02790681
8	0xbcce34c2	-0.025171641
9	0x3b2f317f	0.0026732383
10	0xbc192430	-0.009347007
11	0x3d106dcb	0.035260957
12	0xbba37e1f	-0.0049894
13	0x3cbe866d	0.023257459
14	0xbbf16930	-0.0073672757
15	0x3caca89a	0.02107649
16	0x3c3b8600	0.011445522
17	0x3cb44fd7	0.022010727
18	0x3c341ae7	0.010992742
19	0x3d57566a	0.052572645
20	0xbd5d195c	-0.053979263
21	0x3c6f40e4	0.0146028735
22	0x3cb6be4d	0.02230754
23	0xbd0bcb87	-0.034129646
24	0xbb09c0c9	-0.002101945
25	0xbcc9894a	-0.024601597
26	0xbb6bbfc1	-0.0035972449
27	0xbd00d56b	-0.03145353
28	0x3d0d9d49	0.034573827
29	0x3cacc491	0.021089824
30	0xbd885c32	-0.0665821
31	0x3d1db51e	0.038502805
32	0xbbb8311d	-0.005621089
33	0xbcba406d	-0.022735799
34	0xbbdc0c54	-0.006715337
35	0xbc41dd61	-0.011832566
36	0x3d0cec57	0.03440508
37	0x3c5d27ca	0.013498256
38	0x3c8c74e8	0.017145589
39	0xbd03c084	-0.03216602
40	0xbac0900c	-0.0014691367
41	0x3bdc3838	0.006720569
42	0x3d4adcfa	0.049527146
43	0xb86c86bb	-5.6392262e-05
44	0x3c104fc3	0.008808079
45	0xbd69292a	-0.056924023
46	0xbb203836	-0.0024447567
47	0xbc46b65c	-0.012128439
48	0xbd8cd68b	-0.06876858
49	0x3d3b389f	0.045708295
50	0x3d657be7	0.056026366
51	0x3d3330e0	0.043747783
52	0xbb90f5bf	-0.0044238265
53	0xbd0d7ba1	-0.03454173
54	0xbbcb4c56	-0.0062041683
55	0xbd8d399d	-0.068957545
56	0x3ca83f01	0.020537855
57	0x3ba69956	0.005084197
58	0xbcf8f999	-0.030392455
59	0xbc5714f4	-0.013127554
60	0x3c22c4e4	0.009934638
61	0xbcb86b20	-0.022512019
62	0xbd84fcc7	-0.06493526
63	0xbd2f9242	-0.04286409

layers.0.lin_src.weight f4 [64, 1433]
0	0x3dc2a77b	0.095046006
1	0xbe15ddf9	-0.14635457
2	0x3c03a608	0.00803519
3	0x3e02e1a6	0.1278139
4	0xbe09097f	-0.13382529
5	0xbdc82c20	-0.09774041
6	0x3d85d02e	0.06533848
7	0xbc95c77a	-0.018283594
8	0xbd808972	-0.062762156
9	0x3bfcad34	0.007711077
10	0x3bcfeb0a	0.0063451575
11	0xbc912668	-0.017718509
12	0xbccaca95	-0.024754802
13	0xbd55feb4	-0.052244857
14	0x3d33417d	0.043763626
15	0xbccd125f	-0.025033174
16	0x3bc635e0	0.006048903
17	0x3d96beb5	0.07360593
18	0x3c7c10ce	0.015384866
19	0xbd80f745	-0.06297163
20	0xbb4f5af3	-0.0031639903
21	0x3daa8822	0.083267465
22	0xbd7ec98e	-0.062203936
23	0x3e020d88	0.12700474
24	0x3a65ee1e	0.0008771139
25	0x3d87a1b4	0.06622639
26	0x3c946c0d	0.018117929
27	0xbda0c914	-0.078508526
28	0xbbc05e1a	-0.005870593
29	0x3d5f4948	0.054513246
30	0x3d625ba4	0.055263177
31	0xbb086834	-0.0020814063
32	0xbab09045	-0.001347073
33	0x3d4ce4e5	0.05002298
34	0xbd840533	-0.06446304
35	0xbbd2cb8a	-0.006432955
36	0x3ce821d6	0.028336447
37	0x3cf62743	0.030048018
38	0xbd0a41c6	-0.033754133
39	0x3d7ccad2	0.061716862
40	0xbd2e33eb	-0.04252998
41	0xbca81845	-0.020519385
42	0xbcb1c454	-0.021700062
43	0xbd896303	-0.06708338
44	0x3d869b3a	0.06572576
45	0xbcb181fb	-0.021668425
46	0xbd04188b	-0.03224997
47	0xbd9ef30b	-0.077612005
48	0x3dba13a7	0.0908578
49	0x3adf60e4	0.0017042425
50	0xbd8e2166	-0.06939964
51	0x3e0b3227	0.1359335
52	0x3b2b66a3	0.0026153706
53	0xbafeab2a	-0.0019429673
54	0xbdb9c07a	-0.09069915
55	0xbd688002	-0.056762703
56	0x3de3bb53	0.11119714
57	0xbe13fda9	-0.14452232
58	0xbd93a692	-0.07209505
59	0xbe2b36a0	-0.16720057
60	0xb9d27ed0	-0.00040148804
61	0x3d984970	0.07435882
62	0x3d83b79d	0.06431506
63	0x3ce1f393	0.027581966
64	0x39f0e874	0.00045949558
65	0xbcde2292	-0.027116094
66	0xbd53c977	-0.051705804
67	0xbdf25cb0	-0.11834085
68	0xba8dcec8	-0.0010819072
69	0xbd0b201e	-0.033966176
70	0xbd1cb00b	-0.038253825
71	0x3daca4cc	0.0842987
72	0xbddbc6cf	-0.10731279
73	0xbcd11582	-0.025522951
74	0xbdbddcb9	-0.09270615
75	0xbd8249a5	-0.06361703
76	0xbd60aa8a	-0.05485014
77	0x3c96e174	0.018418051
78	0xbe08e3c8	-0.13368142
79	0xbbe0cc72	-0.0068603093
80	0x3beb1b26	0.007174867
81	0xbd8d565f	-0.069012396
82	0xbdb682fb	-0.08911701
83	0x3d61bc13	0.055111002
84	0xbdd5c03f	-0.10437059
85	0xbd98b1a0	-0.07455754
86	0xbd4b9a66	-0.049707793
87	0x3cf59c1a	0.029981662
88	0x3d88c811	0.06678785
89	0xbd52b0c4	-0.051438108
90	0x3c0b8dd9	0.008517706
91	0x3b4e43e2	0.0031473567
92	0x3cbb52de	0.022866663
93	0xbc3823c2	-0.011238994
94	0xbbe707d4	-0.0070504937
95	0x3e0c19b2	0.13681677
96	0x3d71552d	0.05891912
97	0xbd2220f8	-0.039582223
98	0x3d150520	0.03638184
99	0x3e1d144b	0.15339772
100	0x3dca1e16	0.0986902
101	0xbba336c4	-0.004980894
102	0x3e028995	0.12747796
103	0x3d00f261	0.03148115
104	0x3d6ca910	0.057778418
105	0x3d296347	0.041354444
106	0xbd8ac695	-0.06776158
107	0xbd272007	-0.040802028
108	0xbd2038ab	-0.039116543
109	0xbc89307d	-0.016746754
110	0xba0bfdcb	-0.00053402473
111	0xba8a4002	-0.001054764
112	0xbc6f90b0	-0.0146218985
113	0xba588a0c	-0.00082603167
114	0xbd3a37eb	-0.045463484
115	0x3d940a2f	0.07228505
116	0xbbf710c7	-0.007539842
117	0xbd68e3a4	-0.05685772
118	0x3d411023	0.04713453
119	0xbd497030	-0.049179256
120	0xbb2987e4	-0.002586835
121	0xbd240da2	-0.040052064
122	0x3dc64d1c	0.09682676
123	0xbcdfce2b	-0.027319988
124	0x3da40168	0.08008081
125	0xbd297597	-0.041371908
126	0x3d757063	0.059921633
127	0x3d1b392d	0.037896324
128	0x3cc98d9a	0.024603654
129	0x3d196ff7	0.037460294
130	0xbcd00b1a	-0.025395919
131	0xbd00e90f	-0.031472262
132	0xbdf39fc7	-0.118957095
133	0x3cc0835b	0.023500135
134	0xbda30121	-0.079592
135	0x3b351026	0.0027628033
136	0xbd85407a	-0.065064386
137	0x3ad7b227	0.0016456292
138	0x3b60b582	0.0034287875
139	0xbd23d681	-0.03999949
140	0x3e0a2137	0.13489233
141	0x3d9af646	0.07566504
142	0x3db3d018	0.08779925
143	0xbd875aa2	-0.06609084
144	0xbbaa2325	-0.005192178
145	0x3abd9734	0.0014464618
146	0x3c0e3e8b	0.008681904
147	0x3c162376	0.009163728
148	0xbd01c1cb	-0.031678956
149	0x3da046c1	0.07825995
150	0xbcc65b02	-0.024213318
151	0x3c359c4c	0.011084627
152	0x3d20e270	0.039278448
153	0x3de74a76	0.11293499
154	0x3bbc8f03	0.005754353
155	0x3da88532	0.0822853
156	0xbcf3ddde	-0.02976888
157	0xbdfffeb1	-0.124997504
158	0x3d3696c6	0.044577383
159	0x3d541bab	0.0517842
160	0xbdd6f7f7	-0.10496514
161	0x3d670eba	0.05641053
162	0x3d240864	0.040047064
163	0x3d8af0f5	0.0678424
164	0x3c7a9924	0.015295301
165	0xbc874606	-0.016512882
166	0xbd8fea1b	-0.07027074
167	0x3d814dd2	0.06313671
168	0xbe402f28	-0.18767989
169	0xbce0e39d	-0.027452284
170	0xbd2d92a4	-0.042376176
171	0x3b105135	0.002202106
172	0x3d4ac525	0.049504418
173	0x3c3d58bf	0.011556803
174	0xbc076eb9	-0.008266144
175	0x3c9068ae	0.01762804
176	0x3da904cd	0.08252869
177	0x3e2f16d4	0.17098552
178	0x3d330c5d	0.043712962
179	0x3ceef7c5	0.02917088
180	0x3aa033e0	0.0012222491
181	0x3d78a421	0.0607034
182	0xbe0301d2	-0.12793663
183	0xbd8efd54	-0.06981912
184	0x3c038c9a	0.0080291275
185	0xbb72c555	-0.0037043889
186	0xbdbe166b	-0.0928162
187	0xbd30bd01	-0.043149
188	0xba9d64ac	-0.0012008152
189	0xbd64df29	-0.055876885
190	0xbd557f07	-0.052123096
191	0xbde2549f	-0.110512964
192	0xbde45813	-0.11149611
193	0x3b76df68	0.0037669782
194	0x3d86f00f	0.06588756
195	0x3b70914a	0.0036707693
196	0xbdce1623	-0.10062816
197	0x3d71b70f	0.05901247
198	0xbd2d29cb	-0.042276185
199	0xbcc15b00	-0.023602962
200	0x3cf873a3	0.030328577
201	0xbd3d7476	-0.046253644
202	0xbe021bfe	-0.1270599
203	0xbc697044	-0.014247958
204	0x39da5060	0.00041640084
205	0x3de6e61b	0.11274358
206	0xbc7d1622	-0.015447171
207	0xbd8c8596	-0.06861417
208	0xbd778bb3	-0.060435962
209	0x3c835020	0.016029418
210	0xbcf7b926	-0.030239653
211	0x3d3d2b3b	0.046183806
212	0x3c793fea	0.015212992
213	0x3b46f966	0.0030361055
214	0x3ca01853	0.019542849
215	0x3d8b8949	0.068132944
216	0x3ad4cc17	0.001623514
217	0xbde515e3	-0.11185815
218	0x3ce7e2a2	0.02830631
219	0x3bd9d3fa	0.006647584
220	0x3bb3256e	0.0054671085
221	0x3d9ab5ad	0.07554183
222	0x3d784d69	0.0606207
223	0x3b44091c	0.0029912656
224	0x3d600d7b	0.054700356
225	0x3d4a7091	0.049423758
226	0x3d4766e1	0.048682097
227	0x3becb6ec	0.0072239544
228	0x3d45c4aa	0.048283257
229	0xbcd2505b	-0.025673082
230	0x3d2df165	0.04246654
231	0xbd38de1d	-0.0451337
232	0x3c2974f2	0.010342823
233	0xbd6fb0d4	-0.058518246
234	0xbd0127fc	-0.031532273
235	0xbd2457fe	-0.04012298
236	0xbcaaff8e	-0.020873811
237	0x3e0db8a2	0.13839963
238	0xbd514c6e	-0.05109828
239	0xbda3c84c	-0.07997188
240	0xbcfedb55	-0.031110445
241	0x3d7240be	0.059143774
242	0x3dab4ec6	0.08364634
243	0xbd539047	-0.051651265
244	0xbd981760	-0.074263334
245	0x3d81bc60	0.06334758
246	0xbb86301e	-0.0040950915
247	0xbd2995d5	-0.041402657
248	0x3d890099	0.06689567
249	0xbdfa75c1	-0.12229491
250	0x3d94890b	0.07252701
251	0xbd789097	-0.060684767
252	0xbd296939	-0.041360114
253	0x3d77a341	0.060458425
254	0xbd8796cc	-0.06620559
255	0x3d4a225c	0.049349174

layers.0.lin_dst.weight f4 [64, 1433]
0	0x3dc2a77b	0.095046006
1	0xbe15ddf9	-0.14635457
2	0x3c03a608	0.00803519
3	0x3e02e1a6	0.1278139
4	0xbe09097f	-0.13382529
5	0xbdc82c20	-0.09774041
6	0x3d85d02e	0.06533848
7	0xbc95c77a	-0.018283594
8	0xbd808972	-0.062762156
9	0x3bfcad34	0.007711077
10	0x3bcfeb0a	0.0063451575
11	0xbc912668	-0.017718509
12	0xbccaca95	-0.024754802
13	0xbd55feb4	-0.052244857
14	0x3d33417d	0.043763626
15	0xbccd125f	-0.025033174
16	0x3bc635e0	0.006048903
17	0x3d96beb5	0.07360593
18	0x3c7c10ce	0.015384866
19	0xbd80f745	-0.06297163
20	0xbb4f5af3	-0.0031639903
21	0x3daa8822	0.083267465
22	0xbd7ec98e	-0.062203936
23	0x3e020d88	0.12700474
24	0x3a65ee1e	0.0008771139
25	0x3d87a1b4	0.06622639
26	0x3c946c0d	0.018117929
27	0xbda0c914	-0.078508526
28	0xbbc05e1a	-0.005870593
29	0x3d5f4948	0.054513246
30	0x3d625ba4	0.055263177
31	0xbb086834	-0.0020814063
32	0xbab09045	-0.001347073
33	0x3d4ce4e5	0.05002298
34	0xbd840533	-0.06446304
35	0xbbd2cb8a	-0.006432955
36	0x3ce821d6	0.028336447
37	0x3cf62743	0.030048018
38	0xbd0a41c6	-0.033754133
39	0x3d7ccad2	0.061716862
40	0xbd2e33eb	-0.04252998
41	0xbca81845	-0.020519385
42	0xbcb1c454	-0.021700062
43	0xbd896303	-0.06708338
44	0x3d869b3a	0.06572576
45	0xbcb181fb	-0.021668425
46	0xbd04188b	-0.03224997
47	0xbd9ef30b	-0.077612005
48	0x3dba13a7	0.0908578
49	0x3adf60e4	0.0017042425
50	0xbd8e2166	-0.06939964
51	0x3e0b3227	0.1359335
52	0x3b2b66a3	0.0026153706
53	0xbafeab2a	-0.0019429673
54	0xbdb9c07a	-0.09069915
55	0xbd688002	-0.056762703
56	0x3de3bb53	0.11119714
57	0xbe13fda9	-0.14452232
58	0xbd93a692	-0.07209505
59	0xbe2b36a0	-0.16720057
60	0xb9d27ed0	-0.00040148804
61	0x3d984970	0.07435882
62	0x3d83b79d	0.06431506
63	0x3ce1f393	0.027581966
64	0x39f0e874	0.00045949558
65	0xbcde2292	-0.027116094
66	0xbd53c977	-0.051705804
67	0xbdf25cb0	-0.11834085
68	0xba8dcec8	-0.0010819072
69	0xbd0b201e	-0.033966176
70	0xbd1cb00b	-0.038253825
71	0x3daca4cc	0.0842987
72	0xbddbc6cf	-0.10731279
73	0xbcd11582	-0.025522951
74	0xbdbddcb9	-0.09270615
75	0xbd8249a5	-0.06361703
76	0xbd60aa8a	-0.05485014
77	0x3c96e174	0.018418051
78	0xbe08e3c8	-0.13368142
79	0xbbe0cc72	-0.0068603093
80	0x3beb1b26	0.007174867
81	0xbd8d565f	-0.069012396
82	0xbdb682fb	-0.08911701
83	0x3d61bc13	0.055111002
84	0xbdd5c03f	-0.10437059
85	0xbd98b1a0	-0.07455754
86	0xbd4b9a66	-0.049707793
87	0x3cf59c1a	0.029981662
88	0x3d88c811	0.06678785
89	0xbd52b0c4	-0.051438108
90	0x3c0b8dd9	0.008517706
91	0x3b4e43e2	0.0031473567
92	0x3cbb52de	0.022866663
93	0xbc3823c2	-0.011238994
94	0xbbe707d4	-0.0070504937
95	0x3e0c19b2	0.13681677
96	0x3d71552d	0.05891912
97	0xbd2220f8	-0.039582223
98	0x3d150520	0.03638184
99	0x3e1d144b	0.15339772
100	0x3dca1e16	0.0986902
101	0xbba336c4	-0.004980894
102	0x3e028995	0.12747796
103	0x3d00f261	0.03148115
104	0x3d6ca910	0.057778418
105	0x3d296347	0.041354444
106	0xbd8ac695	-0.06776158
107	0xbd272007	-0.040802028
108	0xbd2038ab	-0.039116543
109	0xbc89307d	-0.016746754
110	0xba0bfdcb	-0.00053402473
111	0xba8a4002	-0.001054764
112	0xbc6f90b0	-0.0146218985
113	0xba588a0c	-0.00082603167
114	0xbd3a37eb	-0.045463484
115	0x3d940a2f	0.07228505
116	0xbbf710c7	-0.007539842
117	0xbd68e3a4	-0.05685772
118	0x3d411023	0.04713453
119	0xbd497030	-0.049179256
120	0xbb2987e4	-0.002586835
121	0xbd240da2	-0.040052064
122	0x3dc64d1c	0.09682676
123	0xbcdfce2b	-0.027319988
124	0x3da40168	0.08008081
125	0xbd297597	-0.041371908
126	0x3d757063	0.059921633
127	0x3d1b392d	0.037896324
128	0x3cc98d9a	0.024603654
129	0x3d196ff7	0.037460294
130	0xbcd00b1a	-0.025395919
131	0xbd00e90f	-0.031472262
132	0xbdf39fc7	-0.118957095
133	0x3cc0835b	0.023500135
134	0xbda30121	-0.079592
135	0x3b351026	0.0027628033
136	0xbd85407a	-0.065064386
137	0x3ad7b227	0.0016456292
138	0x3b60b582	0.0034287875
139	0xbd23d681	-0.03999949
140	0x3e0a2137	0.13489233
141	0x3d9af646	0.07566504
142	0x3db3d018	0.08779925
143	0xbd875aa2	-0.06609084
144	0xbbaa2325	-0.005192178
145	0x3abd9734	0.0014464618
146	0x3c0e3e8b	0.008681904
147	0x3c162376	0.009163728
148	0xbd01c1cb	-0.031678956
149	0x3da046c1	0.07825995
150	0xbcc65b02	-0.024213318
151	0x3c359c4c	0.011084627
152	0x3d20e270	0.039278448
153	0x3de74a76	0.11293499
154	0x3bbc8f03	0.005754353
155	0x3da88532	0.0822853
156	0xbcf3ddde	-0.02976888
157	0xbdfffeb1	-0.124997504
158	0x3d3696c6	0.044577383
159	0x3d541bab	0.0517842
160	0xbdd6f7f7	-0.10496514
161	0x3d670eba	0.05641053
162	0x3d240864	0.040047064
163	0x3d8af0f5	0.0678424
164	0x3c7a9924	0.015295301
165	0xbc874606	-0.016512882
166	0xbd8fea1b	-0.07027074
167	0x3d814dd2	0.06313671
168	0xbe402f28	-0.18767989
169	0xbce0e39d	-0.027452284
170	0xbd2d92a4	-0.042376176
171	0x3b105135	0.002202106
172	0x3d4ac525	0.049504418
173	0x3c3d58bf	0.011556803
174	0xbc076eb9	-0.008266144
175	0x3c9068ae	0.01762804
176	0x3da904cd	0.08252869
177	0x3e2f16d4	0.17098552
178	0x3d330c5d	0.043712962
179	0x3ceef7c5	0.02917088
180	0x3aa033e0	0.0012222491
181	0x3d78a421	0.0607034
182	0xbe0301d2	-0.12793663
183	0xbd8efd54	-0.06981912
184	0x3c038c9a	0.0080291275
185	0xbb72c555	-0.0037043889
186	0xbdbe166b	-0.0928162
187	0xbd30bd01	-0.043149
188	0xba9d64ac	-0.0012008152
189	0xbd64df29	-0.055876885
190	0xbd557f07	-0.052123096
191	0xbde2549f	-0.110512964
192	0xbde45813	-0.11149611
193	0x3b76df68	0.0037669782
194	0x3d86f00f	0.06588756
195	0x3b70914a	0.0036707693
196	0xbdce1623	-0.10062816
197	0x3d71b70f	0.05901247
198	0xbd2d29cb	-0.042276185
199	0xbcc15b00	-0.023602962
200	0x3cf873a3	0.030328577
201	0xbd3d7476	-0.046253644
202	0xbe021bfe	-0.1270599
203	0xbc697044	-0.014247958
204	0x39da5060	0.00041640084
205	0x3de6e61b	0.11274358
206	0xbc7d1622	-0.015447171
207	0xbd8c8596	-0.06861417
208	0xbd778bb3	-0.060435962
209	0x3c835020	0.016029418
210	0xbcf7b926	-0.030239653
211	0x3d3d2b3b	0.046183806
212	0x3c793fea	0.015212992
213	0x3b46f966	0.0030361055
214	0x3ca01853	0.019542849
215	0x3d8b8949	0.068132944
216	0x3ad4cc17	0.001623514
217	0xbde515e3	-0.11185815
218	0x3ce7e2a2	0.02830631
219	0x3bd9d3fa	0.006647584
220	0x3bb3256e	0.0054671085
221	0x3d9ab5ad	0.07554183
222	0x3d784d69	0.0606207
223	0x3b44091c	0.0029912656
224	0x3d600d7b	0.054700356
225	0x3d4a7091	0.049423758
226	0x3d4766e1	0.048682097
227	0x3becb6ec	0.0072239544
228	0x3d45c4aa	0.048283257
229	0xbcd2505b	-0.025673082
230	0x3d2df165	0.04246654
231	0xbd38de1d	-0.0451337
232	0x3c2974f2	0.010342823
233	0xbd6fb0d4	-0.058518246
234	0xbd0127fc	-0.031532273
235	0xbd2457fe	-0.04012298
236	0xbcaaff8e	-0.020873811
237	0x3e0db8a2	0.13839963
238	0xbd514c6e	-0.05109828
239	0xbda3c84c	-0.07997188
240	0xbcfedb55	-0.031110445
241	0x3d7240be	0.059143774
242	0x3dab4ec6	0.08364634
243	0xbd539047	-0.051651265
244	0xbd981760	-0.074263334
245	0x3d81bc60	0.06334758
246	0xbb86301e	-0.0040950915
247	0xbd2995d5	-0.041402657
248	0x3d890099	0.06689567
249	0xbdfa75c1	-0.12229491
250	0x3d94890b	0.07252701
251	0xbd789097	-0.060684767
252	0xbd296939	-0.041360114
253	0x3d77a341	0.060458425
254	0xbd8796cc	-0.06620559
255	0x3d4a225c	0.049349174

layers.1.att_src f4 [1, 1, 7]
0	0x3efc6224	0.49293625
1	0xbe20dce6	-0.15709266
2	0xbdafb6d2	-0.08579792
3	0x3f1194c9	0.56867653
4	0x3e91814c	0.28418958
5	0x3e0fad16	0.14030871
6	0x3eb233e0	0.34805202

layers.1.att_dst f4 [1, 1, 7]
0	0x3ca5607d	0.02018761
1	0xbe9246d1	-0.28569654
2	0x3da23620	0.0792048
3	0x3eb2b909	0.34906796
4	0x3cec1605	0.028819093
5	0xbf5bb786	-0.8582691
6	0xbdddc403	-0.10828402

layers.1.bias f4 [7]
0	0x3df147ea	0.11781295
1	0x3c62d708	0.013845213
2	0xbdfadec7	-0.12249523
3	0x3cae9a91	0.021313937
4	0x3c9c89ba	0.019108642
5	0xbcb30550	-0.02185312
6	0xbd0b6ab0	-0.034037292

layers.1.lin_src.weight f4 [7, 64]
0	0x3ea9bf6e	0.33153862
1	0x3d9f1702	0.0776806
2	0xbe2a66a7	-0.16640721
3	0x3d1fecee	0.039044313
4	0xbe72f2c4	-0.2372542
5	0xbe58326d	-0.21112986
6	0xbe5e4e60	-0.21709585
7	0xbd569f76	-0.052398168
8	0xbe92adad	-0.2864813
9	0xbd8f2c55	-0.069908775
10	0xbe1868c7	-0.1488372
11	0x3e63ffb9	0.22265519
12	0xbe09292a	-0.13394609
13	0xbd49b281	-0.0492425
14	0x3d9f1e13	0.07769408
15	0xbd1bbd46	-0.038022302
16	0xbe64192b	-0.22275226
17	0xbd99c005	-0.07507328
18	0x3e7f1590	0.24910569
19	0xbd8f8d0d	-0.07009325
20	0xbce60e7d	-0.02808308
21	0x3ebecbb1	0.3726478
22	0x3d30dcb2	0.04317922
23	0xbe3ef969	-0.1864983
24	0x3e27ceae	0.16387436
25	0x3e6cd95a	0.23129788
26	0x3e5f4a72	0.21805742
27	0x3eba7e20	0.3642435
28	0x3d82c3ae	0.06384979
29	0xbe24f25e	-0.1610808
30	0x3dad84a0	0.08472562
31	0x3df429f0	0.119220614
32	0xbe1240c1	-0.14282514
33	0xbe112944	-0.14175898
34	0x3e7ff6cd	0.24996491
35	0x3e0277ea	0.12741056
36	0xbe1106e9	-0.14162792
37	0x3ce57ad8	0.028012678
38	0x3e8e59f0	0.27802992
39	0xbd39ec55	-0.0453914
40	0xbe933c11	-0.28756765
41	0xbea4a9ff	-0.32160947
42	0xbe0a9c96	-0.13536295
43	0xbe7f80dd	-0.24951501
44	0xbe6607a9	-0.2246386
45	0x3e1da31a	0.1539425
46	0xbdce1e38	-0.100643575
47	0x3e46e5a7	0.19423543
48	0x3dc5935c	0.09647247
49	0xbe27c76e	-0.1638467
50	0x3d3993db	0.04530702
51	0xbd448e44	-0.047987238
52	0xbe8799af	-0.2648444
53	0xbe501913	-0.20322065
54	0xbe9ba89c	-0.30402076
55	0xbaf25405	-0.0018488175
56	0xbd9eff43	-0.07763531
57	0xbead837b	-0.33889374
58	0xbecf5e1c	-0.40501487
59	0x3e6a5012	0.22882107
60	0xbe6afbe4	-0.22947651
61	0xbecb60eb	-0.3972238
62	0xbe0a427a	-0.13501921
63	0xbea2a963	-0.31769857
64	0xbe2e3809	-0.17013563
65	0xbe2a2aec	-0.16617936
66	0x3ce05327	0.0273834
67	0x3e6b3b4f	0.22971843
68	0x3e78f905	0.24313743
69	0x3e9f4e3d	0.3111438
70	0x3da554e2	0.08072831
71	0x3e7d2439	0.24720849
72	0x3ec5c037	0.3862321
73	0xbd83eca8	-0.06441623
74	0x3da7cce2	0.08193375
75	0xbe689b1b	-0.22715418
76	0x3eb3eaed	0.35140172
77	0xbe870044	-0.2636739
78	0xbe154fa1	-0.14581157
79	0x3dd5460f	0.10413753
80	0xbe9095b2	-0.28239208
81	0x3ea886ad	0.3291525
82	0x3e0c5480	0.13704109
83	0xbe628498	-0.22120893
84	0x3e8fa6ad	0.2805685
85	0xbe8a06ce	-0.26958317
86	0x3ea15ee2	0.31517702
87	0xbdf9806c	-0.12182698
88	0x3e04bf1c	0.12963527
89	0x3c611bf0	0.013739571
90	0x3ed6ea71	0.4197574
91	0x3e7526c3	0.23940568
92	0xbe9675ca	-0.2938674
93	0x3e6dcee6	0.23223457
94	0x3e1e2288	0.1544286
95	0x3e133c1c	0.14378399
96	0x3e93bba9	0.2885411
97	0x3eaa864c	0.33305585
98	0x3e228f63	0.1587501
99	0xbe2322a7	-0.15931188
100	0x3c066bdd	0.008204428
101	0xbeb13529	-0.3461087
102	0xbdfcdf17	-0.123472385
103	0x3d0ff341	0.035144094
104	0x3e66db68	0.22544634
105	0xbe67667c	-0.22597688
106	0xbe22b2ff	-0.15888594
107	0xbe50ff99	-0.20410003
108	0xbe8aaeb6	-0.2708642
109	0xbe998e0d	-0.2999119
110	0x3d407b76	0.04699274
111	0x3ec203ca	0.37893516
112	0x3db89a40	0.09013796
113	0x3dcc62ae	0.09979759
114	0xbe21a4df	-0.1578555
115	0xbdff989e	-0.12480281
116	0xbe8ef1e2	-0.27918917
117	0xbe72b083	-0.23700146
118	0xbe309658	-0.17244852
119	0x3db93e02	0.0904503
120	0xbe1a130f	-0.15046333
121	0x3ea35fbd	0.3190898
122	0xbd0014fc	-0.031270012
123	0x3e50a441	0.20375158
124	0x3ddcca14	0.10780731
125	0x3e70739e	0.23481604
126	0xbda50fe3	-0.08059671
127	0x3ec0be39	0.37645128
128	0x3e4c8908	0.19974148
129	0xbdb9f065	-0.09079055
130	0xbe270ca3	-0.16313414
131	0x3ddc5f7b	0.10760399
132	0x3e89f7ae	0.26946777
133	0x3e3cb657	0.18428932
134	0xbef1f862	-0.47259814
135	0xbe37d84e	-0.17953607
136	0x3e082ac2	0.13297561
137	0x3ee200fc	0.44141376
138	0xbe831745	-0.2560369
139	0xbe299e78	-0.16564357
140	0x3ec581d2	0.38575608
141	0xbe645cae	-0.2230098
142	0xbda04fc8	-0.07827717
143	0xbe7dbf29	-0.24779953
144	0x3e673097	0.2257713
145	0xbb0946c2	-0.0020946716
146	0xbc5387b1	-0.012910769
147	0xbebd24bb	-0.36942086
148	0xbc9e14ce	-0.01929703
149	0x3cc78081	0.024353268
150	0xbcd85b8e	-0.026410844
151	0x3e1c3ad0	0.1525681
152	0x3e0fa6f5	0.14028533
153	0x3e02bdfc	0.12767786
154	0xbe2d6431	-0.16932751
155	0x3e5efad2	0.21775368
156	0xbda44646	-0.08021216
157	0xbec06610	-0.37577868
158	0x3e15e297	0.14637218
159	0x3e72e4f6	0.23720154
160	0xbe238b91	-0.15971209
161	0x3e38f65b	0.18062727
162	0x3dd9e362	0.10639073
163	0x3e6ca859	0.23111095
164	0x3e9ae485	0.30252472
165	0x3e86d874	0.26337016
166	0x3ea3159e	0.3185243
167	0x3ea62de2	0.3245688
168	0x3e79a346	0.2437869
169	0x3e609896	0.21933207
170	0xbdd23f86	-0.102660224
171	0xbe685c26	-0.22691402
172	0x3e738bcb	0.23783796
173	0x3e80eadc	0.25179183
174	0xbea52bfe	-0.32260126
175	0xbe7ecbb8	-0.248824
176	0x3e076360	0.13221502
177	0xbe559afd	-0.20859905
178	0xbdd68036	-0.10473673
179	0xbe41dc05	-0.18931587
180	0xbeaf8755	-0.34282938
181	0xbe031a86	-0.12803087
182	0x3eafd0f6	0.34339112
183	0x3ebb072c	0.3652891
184	0xbd8586a4	-0.06519821
185	0xbcd23b6b	-0.025663098
186	0x3e88b04f	0.26697013
187	0xbe83dfe6	-0.25756758
188	0x3d7dfdbb	0.062009554
189	0xbe805202	-0.25062567
190	0x3e984506	0.2974016
191	0xbe2caa70	-0.16861892
192	0xbe02d65f	-0.12777089
193	0x3d90e71f	0.07075333
194	0xbcae304c	-0.021263264
195	0x3ea15dc3	0.31516847
196	0xbe27aceb	-0.16374557
197	0x3ded814b	0.11596926
198	0x3e9ce503	0.30643472
199	0xbe611d7c	-0.21983904
200	0x3e623cb6	0.22093472
201	0xbe3b14a9	-0.182696
202	0xbd83b12f	-0.064302795
203	0xbdc4bb01	-0.09605981
204	0xbe80d4cb	-0.25162348
205	0xbe688439	-0.22706689
206	0xbe9d9992	-0.30781227
207	0x3dc2396f	0.09483611
208	0x3e05f1df	0.13080548
209	0x3e27c206	0.16382608
210	0xbd0afb5f	-0.033931132
211	0xbe5bb97d	-0.21457477
212	0x3d6c90f8	0.05775544
213	0xbea5f2ce	-0.32411808
214	0xbe450862	-0.19241479
215	0xbddacf8f	-0.1068412
216	0xbeb34063	-0.3501006
217	0x3d902ace	0.07039414
218	0xbdf50d53	-0.11965432
219	0xbe048910	-0.1294291
220	0x3e6efa79	0.23337735
221	0xbe1ee44b	-0.15516774
222	0xbdf3c16d	-0.119021274
223	0xbe865ec8	-0.26244187
224	0x3e530ced	0.206104
225	0xbe7685b0	-0.24074435
226	0x3e2895f7	0.16463457
227	0xbd23eb98	-0.0400196
228	0x3ea59a29	0.32344177
229	0xbe4f0a81	-0.2021885
230	0xbdbd7b01	-0.09251977
231	0xbe4d3029	-0.20037903
232	0x3d82b6b1	0.06382502
233	0x3da318a9	0.07963688
234	0xbbdbaa9a	-0.006703687
235	0xbe72b8fb	-0.23703377
236	0x3d8df54c	0.06931552
237	0x3eb6564b	0.3561271
238	0xbe441299	-0.1914772
239	0x3d6f2bf3	0.058391523
240	0xbe095553	-0.13411455
241	0x3e7b7ae0	0.24558592
242	0xbe952232	-0.2912765
243	0x3e815506	0.2526018
244	0x3e3ddf45	0.18542202
245	0x3dfa3c28	0.12218505
246	0x3e30f038	0.17279136
247	0xbe6c6195	-0.230841
248	0x3d7f0934	0.062264636
249	0xbe7a5d24	-0.24449593
250	0x3e134773	0.14382724
251	0xbdc86388	-0.09784609
252	0xbda540b4	-0.08068982
253	0x3ea3670c	0.31914556
254	0x3e9cfc9f	0.30661485
255	0xbdc60385	-0.0966864

layers.1.lin_dst.weight f4 [7, 64]
0	0x3ea9bf6e	0.33153862
1	0x3d9f1702	0.0776806
2	0xbe2a66a7	-0.16640721
3	0x3d1fecee	0.039044313
4	0xbe72f2c4	-0.2372542
5	0xbe58326d	-0.21112986
6	0xbe5e4e60	-0.21709585
7	0xbd569f76	-0.052398168
8	0xbe92adad	-0.2864813
9	0xbd8f2c55	-0.069908775
10	0xbe1868c7	-0.1488372
11	0x3e63ffb9	0.22265519
12	0xbe09292a	-0.13394609
13	0xbd49b281	-0.0492425
14	0x3d9f1e13	0.07769408
15	0xbd1bbd46	-0.038022302
16	0xbe64192b	-0.22275226
17	0xbd99c005	-0.07507328
18	0x3e7f1590	0.24910569
19	0xbd8f8d0d	-0.07009325
20	0xbce60e7d	-0.02808308
21	0x3ebecbb1	0.3726478
22	0x3d30dcb2	0.04317922
23	0xbe3ef969	-0.1864983
24	0x3e27ceae	0.16387436
25	0x3e6cd95a	0.23129788
26	0x3e5f4a72	0.21805742
27	0x3eba7e20	0.3642435
28	0x3d82c3ae	0.06384979
29	0xbe24f25e	-0.1610808
30	0x3dad84a0	0.08472562
31	0x3df429f0	0.119220614
32	0xbe1240c1	-0.14282514
33	0xbe112944	-0.14175898
34	0x3e7ff6cd	0.24996491
35	0x3e0277ea	0.12741056
36	0xbe1106e9	-0.14162792
37	0x3ce57ad8	0.028012678
38	0x3e8e59f0	0.27802992
39	0xbd39ec55	-0.0453914
40	0xbe933c11	-0.28756765
41	0xbea4a9ff	-0.32160947
42	0xbe0a9c96	-0.13536295
43	0xbe7f80dd	-0.24951501
44	0xbe6607a9	-0.2246386
45	0x3e1da31a	0.1539425
46	0xbdce1e38	-0.100643575
47	0x3e46e5a7	0.19423543
48	0x3dc5935c	0.09647247
49	0xbe27c76e	-0.1638467
50	0x3d3993db	0.04530702
51	0xbd448e44	-0.047987238
52	0xbe8799af	-0.2648444
53	0xbe501913	-0.20322065
54	0xbe9ba89c	-0.30402076
55	0xbaf25405	-0.0018488175
56	0xbd9eff43	-0.07763531
57	0xbead837b	-0.33889374
58	0xbecf5e1c	-0.40501487
59	0x3e6a5012	0.22882107
60	0xbe6afbe4	-0.22947651
61	0xbecb60eb	-0.3972238
62	0xbe0a427a	-0.13501921
63	0xbea2a963	-0.31769857
64	0xbe2e3809	-0.17013563
65	0xbe2a2aec	-0.16617936
66	0x3ce05327	0.0273834
67	0x3e6b3b4f	0.22971843
68	0x3e78f905	0.24313743
69	0x3e9f4e3d	0.3111438
70	0x3da554e2	0.08072831
71	0x3e7d2439	0.24720849
72	0x3ec5c037	0.3862321
73	0xbd83eca8	-0.06441623
74	0x3da7cce2	0.08193375
75	0xbe689b1b	-0.22715418
76	0x3eb3eaed	0.35140172
77	0xbe870044	-0.2636739
78	0xbe154fa1	-0.14581157
79	0x3dd5460f	0.10413753
80	0xbe9095b2	-0.28239208
81	0x3ea886ad	0.3291525
82	0x3e0c5480	0.13704109
83	0xbe628498	-0.22120893
84	0x3e8fa6ad	0.2805685
85	0xbe8a06ce	-0.26958317
86	0x3ea15ee2	0.31517702
87	0xbdf9806c	-0.12182698
88	0x3e04bf1c	0.12963527
89	0x3c611bf0	0.013739571
90	0x3ed6ea71	0.4197574
91	0x3e7526c3	0.23940568
92	0xbe9675ca	-0.2938674
93	0x3e6dcee6	0.23223457
94	0x3e1e2288	0.1544286
95	0x3e133c1c	0.14378399
96	0x3e93bba9	0.2885411
97	0x3eaa864c	0.33305585
98	0x3e228f63	0.1587501
99	0xbe2322a7	-0.15931188
100	0x3c066bdd	0.008204428
101	0xbeb13529	-0.3461087
102	0xbdfcdf17	-0.123472385
103	0x3d0ff341	0.035144094
104	0x3e66db68	0.22544634
105	0xbe67667c	-0.22597688
106	0xbe22b2ff	-0.15888594
107	0xbe50ff99	-0.20410003
108	0xbe8aaeb6	-0.2708642
109	0xbe998e0d	-0.2999119
110	0x3d407b76	0.04699274
111	0x3ec203ca	0.37893516
112	0x3db89a40	0.09013796
113	0x3dcc62ae	0.09979759
114	0xbe21a4df	-0.1578555
115	0xbdff989e	-0.12480281
116	0xbe8ef1e2	-0.27918917
117	0xbe72b083	-0.23700146
118	0xbe309658	-0.17244852
119	0x3db93e02	0.0904503
120	0xbe1a130f	-0.15046333
121	0x3ea35fbd	0.3190898
122	0xbd0014fc	-0.031270012
123	0x3e50a441	0.20375158
124	0x3ddcca14	0.10780731
125	0x3e70739e	0.23481604
126	0xbda50fe3	-0.08059671
127	0x3ec0be39	0.37645128
128	0x3e4c8908	0.19974148
129	0xbdb9f065	-0.09079055
130	0xbe270ca3	-0.16313414
131	0x3ddc5f7b	0.10760399
132	0x3e89f7ae	0.26946777
133	0x3e3cb657	0.18428932
134	0xbef1f862	-0.47259814
135	0xbe37d84e	-0.17953607
136	0x3e082ac2	0.13297561
137	0x3ee200fc	0.44141376
138	0xbe831745	-0.2560369
139	0xbe299e78	-0.16564357
140	0x3ec581d2	0.38575608
141	0xbe645cae	-0.2230098
142	0xbda04fc8	-0.07827717
143	0xbe7dbf29	-0.24779953
144	0x3e673097	0.2257713
145	0xbb0946c2	-0.0020946716
146	0xbc5387b1	-0.012910769
147	0xbebd24bb	-0.36942086
148	0xbc9e14ce	-0.01929703
149	0x3cc78081	0.024353268
150	0xbcd85b8e	-0.026410844
151	0x3e1c3ad0	0.1525681
152	0x3e0fa6f5	0.14028533
153	0x3e02bdfc	0.12767786
154	0xbe2d6431	-0.16932751
155	0x3e5efad2	0.21775368
156	0xbda44646	-0.08021216
157	0xbec06610	-0.37577868
158	0x3e15e297	0.14637218
159	0x3e72e4f6	0.23720154
160	0xbe238b91	-0.15971209
161	0x3e38f65b	0.18062727
162	0x3dd9e362	0.10639073
163	0x3e6ca859	0.23111095
164	0x3e9ae485	0.30252472
165	0x3e86d874	0.26337016
166	0x3ea3159e	0.3185243
167	0x3ea62de2	0.3245688
168	0x3e79a346	0.2437869
169	0x3e609896	0.21933207
170	0xbdd23f86	-0.102660224
171	0xbe685c26	-0.22691402
172	0x3e738bcb	0.23783796
173	0x3e80eadc	0.25179183
174	0xbea52bfe	-0.32260126
175	0xbe7ecbb8	-0.248824
176	0x3e076360	0.13221502
177	0xbe559afd	-0.20859905
178	0xbdd68036	-0.10473673
179	0xbe41dc05	-0.18931587
180	0xbeaf8755	-0.34282938
181	0xbe031a86	-0.12803087
182	0x3eafd0f6	0.34339112
183	0x3ebb072c	0.3652891
184	0xbd8586a4	-0.06519821
185	0xbcd23b6b	-0.025663098
186	0x3e88b04f	0.26697013
187	0xbe83dfe6	-0.25756758
188	0x3d7dfdbb	0.062009554
189	0xbe805202	-0.25062567
190	0x3e984506	0.2974016
191	0xbe2caa70	-0.16861892
192	0xbe02d65f	-0.12777089
193	0x3d90e71f	0.07075333
194	0xbcae304c	-0.021263264
195	0x3ea15dc3	0.31516847
196	0xbe27aceb	-0.16374557
197	0x3ded814b	0.11596926
198	0x3e9ce503	0.30643472
199	0xbe611d7c	-0.21983904
200	0x3e623cb6	0.22093472
201	0xbe3b14a9	-0.182696
202	0xbd83b12f	-0.064302795
203	0xbdc4bb01	-0.09605981
204	0xbe80d4cb	-0.25162348
205	0xbe688439	-0.22706689
206	0xbe9d9992	-0.30781227
207	0x3dc2396f	0.09483611
208	0x3e05f1df	0.13080548
209	0x3e27c206	0.16382608
210	0xbd0afb5f	-0.033931132
211	0xbe5bb97d	-0.21457477
212	0x3d6c90f8	0.05775544
213	0xbea5f2ce	-0.32411808
214	0xbe450862	-0.19241479
215	0xbddacf8f	-0.1068412
216	0xbeb34063	-0.3501006
217	0x3d902ace	0.07039414
218	0xbdf50d53	-0.11965432
219	0xbe048910	-0.1294291
220	0x3e6efa79	0.23337735
221	0xbe1ee44b	-0.15516774
222	0xbdf3c16d	-0.119021274
223	0xbe865ec8	-0.26244187
224	0x3e530ced	0.206104
225	0xbe7685b0	-0.24074435
226	0x3e2895f7	0.16463457
227	0xbd23eb98	-0.0400196
228	0x3ea59a29	0.32344177
229	0xbe4f0a81	-0.2021885
230	0xbdbd7b01	-0.09251977
231	0xbe4d3029	-0.20037903
232	0x3d82b6b1	0.06382502
233	0x3da318a9	0.07963688
234	0xbbdbaa9a	-0.006703687
235	0xbe72b8fb	-0.23703377
236	0x3d8df54c	0.06931552
237	0x3eb6564b	0.3561271
238	0xbe441299	-0.1914772
239	0x3d6f2bf3	0.058391523
240	0xbe095553	-0.13411455
241	0x3e7b7ae0	0.24558592
242	0xbe952232	-0.2912765
243	0x3e815506	0.2526018
244	0x3e3ddf45	0.18542202
245	0x3dfa3c28	0.12218505
246	0x3e30f038	0.17279136
247	0xbe6c6195	-0.230841
248	0x3d7f0934	0.062264636
249	0xbe7a5d24	-0.24449593
250	0x3e134773	0.14382724
251	0xbdc86388	-0.09784609
252	0xbda540b4	-0.08068982
253	0x3ea3670c	0.31914556
254	0x3e9cfc9f	0.30661485
255	0xbdc60385	-0.0966864
