tutorials/cloud_deployment/google_vertexai/gat_cora/model.pth (torch, 372175 bytes, 10 tensors)

layers.0.att_src f4 [1, 8, 8]
-0.15329206 -0.4483508 -0.5228114 -0.2648683 -0.43336535 -0.39824495 0.029446073 0.46420348
0.4100821 0.49489337 0.47276413 0.4965578 -0.4919734 0.23784424 0.22683322 -0.28945377
-0.37797713 -0.31159282 -0.15445788 -0.28544962 0.008056295 0.20313425 0.004001641 0.4123131
-0.052251004 -0.265376 -0.07226614 0.16677448 0.006972565 -0.42993465 -0.3658885 -0.20028982
-0.07422901 -0.4350663 -0.33061397 -0.38903773 -0.36907548 0.20926596 -0.42028737 -0.442312
-0.5507795 -0.3672483 -0.38577372 -0.081908494 -0.27216777 0.5256054 0.29106414 -0.22147323
-0.5062182 0.61144745 0.46554065 0.035712868 -0.4388816 0.33153322 -0.44130576 0.031732347
-0.37154675 -0.009168433 0.21471648 0.36488116 0.1798801 0.3399221 -0.5206295 0.06935721
00000000: 98f8 1cbe 3c8e e5be f8d6 05bf d19c 87be
00000010: 10e2 ddbe c3e6 cbbe e438 f13c 14ac ed3e
00000020: 48f6 d13e aa62 fd3e 240e f23e d33c fe3e
00000030: f0e3 fbbe 718d 733e f846 683e 4933 94be
00000040: 3886 c1be 1889 9fbe 352a 1ebe 7426 92be
00000050: 8dfe 033c 6d02 503e 3320 833b b41a d33e
00000060: 2605 56bd 5ddf 87be 4500 94bd eec6 2a3e
00000070: 1d7a e43b 6520 dcbe bd55 bbbe c618 4dbe
00000080: 6105 98bd 03c1 debe 3c46 a9be f42f c7be
00000090: 76f7 bcbe d149 563e e82f d7be b876 e2be
000000a0: e3ff 0cbf f807 bcbe 2284 c5be a4bf a7bd
000000b0: 9359 8bbe 138e 063f 5c06 953e e1c9 62be
000000c0: 8497 01bf d287 1c3f 585b ee3e a847 123d
000000d0: 17b5 e0be b9be a93e d4f2 e1be c7f9 013d
000000e0: 603b bebe 3237 16bc a3de 5b3e b4d1 ba3e
000000f0: 7d32 383e 450a ae3e fa47 05bf 270b 8e3d

layers.0.att_dst f4 [1, 8, 8]
-0.40561402 -0.3266813 0.008799121 0.3443695 0.33808136 -0.12226971 0.053336386 -0.03664864
0.38100272 0.36965632 -0.22324722 0.48329052 0.3276279 0.23331551 -0.05936956 -0.35349134
-0.082728244 -0.42530498 0.28684512 -0.3572719 -0.09280522 0.116754316 0.3217063 -0.009170353
-0.41504535 -0.15553704 -0.1351051 0.065377235 0.39722735 -0.1733049 -0.06961692 0.13568547
0.3666879 -0.15418294 -0.3071781 0.19632117 -0.14972115 0.18376191 0.39315784 -0.23831654
-0.27965975 -0.4687283 -0.22843082 0.27716795 -0.22922173 -0.23401323 0.059805367 -0.5043508
0.24022764 0.025373302 -0.053631157 0.1376756 -0.46447068 -0.25058845 0.3796356 -0.42448238
-0.30835438 -0.3515972 -0.39396253 0.112098075 -0.4813502 -0.056780607 0.02793738 0.16098054
00000000: a4ac cfbe c542 a7be 302a 103c 3351 b03e
00000010: 0019 ad3e 8b68 fabd 4177 5a3d e21c 16bd
00000020: ca12 c33e 9843 bd3e eb9a 64be db71 f73e
00000030: d8be a73e 43ea 6e3e 7f2d 73bd d1fc b4be
00000040: 6d6d a9bd 93c1 d9be 5ddd 923e 58ec b6be
00000050: aa10 bebd e31c ef3d b0b6 a43e 403f 16bc
00000060: d380 d4be 1a45 1fbe fe58 0abe 80e4 853d
00000070: 6261 cb3e d776 31be 5193 8ebd 22f1 0a3e
00000080: 84be bb3e 22e2 1dbe 7346 9dbe 6b08 493e
00000090: 8050 19be 152c 3c3e fc4b c93e 4009 74be
000000a0: 902f 8fbe 28fd efbe c5e9 69be f5e8 8d3e
000000b0: 1ab9 6abe 2aa1 6fbe 79f6 743d 221d 01bf
000000c0: 3cfe 753e acdb cf3c 58ac 5bbd d5fa 0c3e
000000d0: 1acf edbe 214d 80be 995f c23e c155 d9be
000000e0: a0e0 9dbe 8c04 b4be 75b5 c9be ad93 e53d
000000f0: 8973 f6be c892 68bd efdc e43c 15d8 243e

layers.0.bias f4 [64]
0.0009847753 0.06972443 0.019967137 -0.035295237 -0.019168632 -0.04574867 -0.004259234 0.03355107
-0.02369619 0.06085303 -0.085634045 0.043422475 0.02349554 -0.07578516 0.0024627391 -0.052064568
0.0031585942 0.010150062 -0.0072056674 0.040902745 0.03676556 0.0006145732 0.112743326 0.044612326
0.03466279 0.014182122 -0.022446154 0.030959748 0.0009868611 0.047643494 0.0311288 -0.01888875
-0.0105929 0.022724124 0.07100934 -0.12669033 0.060812306 -0.014666529 -0.06435566 0.001125385
-0.07306121 0.06544789 0.00087729504 -0.048515186 -0.049070742 0.0050769905 0.07456288 -0.03285544
0.06566895 0.07027516 0.03610971 0.07498472 -0.0063639926 -0.09946463 0.0137928 -0.0103560835
0.06062717 -0.0073090196 0.035316244 0.07941241 -0.03739983 -0.036169916 -0.03635414 0.10325013
00000000: 9313 813a afcb 8e3d 1f92 a33c bd91 10bd
00000010: 8907 9dbc f562 3bbd 0b91 8bbb d96c 093d
00000020: 831e c2bc 0741 793d e760 afbd c4db 313d
00000030: b879 c03c 4035 9bbd e865 213b a841 55bd
00000040: 6b00 4f3b 724c 263c 851d ecbb a389 273d
00000050: 7c97 163d 4f1b 213a f9e5 e63d 6abb 363d
00000060: 92fa 0d3d 225c 683c ffe0 b7bc 4c9f fd3c
00000070: 9059 813a d325 433d d301 ff3c 94bc 9abc
00000080: d88d 2dbc f127 ba3c 586d 913d 1cbb 01be
00000090: 5316 793d e24b 70bc e6cc 83bd a881 933a
000000a0: 1ea1 95bd 8b09 863d 46fa 653a dcb7 46bd
000000b0: 67fe 48bd e25c a63b 6cb4 983d 6d93 06bd
000000c0: 717d 863d 6cec 8f3d c6e7 133d 9791 993d
000000d0: 0a89 d0bb 1db4 cbbd 32fb 613c 90ac 29bc
000000e0: 3254 783d 8080 efbb c4a7 103d f9a2 a23d
000000f0: 9030 19bd e826 14bd 14e8 14bd ce74 d33d

layers.0.lin_src.weight f4 [64, 1433]
-0.008361319 0.077259816 0.07841629 0.008705757 -0.122089714 -0.03306264 -0.045260202 -0.0338001
0.0747999 0.02952233 -0.0012143014 0.0047183177 0.0534556 0.024853252 -0.0010799255 -0.014543621
-0.042202216 0.094853215 0.01957372 -0.090526484 -0.0050817514 -0.058780175 -0.01226249 -0.059559304
-0.005249714 -0.041705497 -0.0508351 -0.03383744 0.037766103 -0.058570072 0.045486934 -0.0005686523
0.0019645465 0.015629549 0.00731712 -0.023094255 -0.08162041 -0.05804648 0.061587926 0.005600909
-0.010077033 -0.03872413 0.059477367 0.0059622778 0.051251996 0.0779055 0.025445594 -0.007277372
-0.025312008 0.0034678464 -0.0678818 -0.10147249 -0.01939356 0.0073051364 -0.0048772604 0.030016026
-0.06373859 -0.043717604 0.02677522 0.06757553 0.0052142856 0.082407765 -0.10772224 -0.006728261
-0.025147123 0.004700234 0.08689599 0.08100777 0.0025171808 0.057483904 -0.038665812 -0.061667297
0.02824649 0.041372478 -0.03240004 -0.0555321 0.048843406 0.04708495 0.09482738 -0.13161601
0.033560738 -0.07948556 -0.009089125 -0.03720423 -0.07538453 -0.08738771 -0.091134205 -0.020819236
-0.05445149 -0.08737945 -0.038233764 0.076656945 -0.104327045 -0.08340265 0.00029066723 -0.091716714
0.056679934 -0.031588927 -0.11483833 0.10028968 -0.017716125 -0.00093505863 0.09425104 -0.086685516
0.070468694 0.005288123 0.021052387 0.025736148 0.085206985 -0.045001425 -0.0011674906 -0.037702713
-0.0041573155 -0.0051276055 0.04363448 0.079748735 -0.060381014 -0.08242904 0.040078677 0.0836634
-0.049282487 -0.14524576 -0.0049599838 -0.04203402 0.015399442 0.0139030395 0.0065393345 -0.055729304
-0.021350814 -0.10630585 0.041266393 0.019190151 -0.029333042 -0.14579742 -0.022927219 0.008726059
0.0033179242 -0.00132357 -0.009790818 -0.033540364 0.04052853 -0.02760681 0.08693134 -0.10028213
-0.009570084 -0.0036234446 -0.14436038 0.03712402 -0.007903837 -0.052673995 -0.074754655 -0.026622612
-0.0045521026 0.001788239 -0.115964144 -0.13228764 0.06614157 0.066859365 -0.0035896017 -0.0042154724
-0.06047557 -0.037866596 -0.08956979 0.02229437 -0.065620735 -0.015501802 -0.031051178 0.13112022
0.126368 -0.05217718 0.011290058 -0.0010635636 -0.07258606 0.063469104 0.05458529 -0.015881402
-0.013326997 -0.057475686 -0.01820135 -0.031646043 0.001698312 0.08187788 0.048239015 0.11975848
0.0017823527 -0.009741206 -0.015000788 0.14088692 0.037509482 -0.04307803 0.1109421 0.024297424
-0.0066008745 -0.0006433205 0.009378589 -0.09304176 0.08108874 -0.05480762 0.03184373 0.07330682
-0.01675701 -0.021462185 -0.07802912 0.02234453 0.0014988786 -0.11650633 0.0154353175 -0.05485572
0.12459854 -0.06427467 0.05113477 -0.080478474 -0.0010667748 -0.04327232 -0.04512296 -0.066126294
0.0055167545 -0.047838755 -0.08818735 -0.02866928 -0.044213276 -0.08307101 -0.05803612 0.0035244767
-0.015037211 0.026174847 0.08875086 0.022664608 -0.015711203 0.073000126 0.004013519 -0.0563907
-0.035548385 -0.04392132 0.005100606 -0.08587443 0.008950328 -0.074241534 0.010224033 -0.013654061
-0.042386618 -0.036042467 0.03931044 0.06731398 0.0031276583 -0.052464318 -0.00045257702 0.0852342
0.009968832 0.07849626 0.03548568 0.007149511 -0.01633285 -0.05145516 0.06468475 -0.011148984
00000000: eafd 08bc 653a 9e3d b898 a03d 97a2 0e3c
00000010: 2c0a fabd b16c 07bd c362 39bd f971 0abd
00000020: b130 993d d0d8 f13c 3229 9fba 1e9c 9a3b
00000030: 42f4 5a3d 0c99 cb3c 498c 8dba 5e48 6ebc
00000040: 3bdc 2cbd 6742 c23d 1159 a03c f365 b9bd
00000050: d284 a6bb 7bc3 70bd 9ce8 48bc 75f4 73bd
00000060: cb05 acbb 62d3 2abd 7738 50bd 2199 0abd
00000070: a1b0 1a3d 2ce7 6fbd 8250 3a3d 9c11 15ba
00000080: 9fbf 003b 8a09 803c 74c4 ef3b 2a30 bdbc
00000090: 9a28 a7bd 25c2 6dbd 9f43 7c3d d487 b73b
000000a0: 241a 25bc 319d 1ebd 8a9e 733d 365f c33b
000000b0: 9ded 513d eb8c 9f3d 4773 d03c 0577 eebb
000000c0: 215b cfbc cf44 633b 9d05 8bbd cfd0 cfbd
000000d0: 3edf 9ebc ed5f ef3b 6dd1 9fbb 2be4 f53c
000000e0: 6189 82bd 3b11 33bd b557 db3c 0a65 8a3d
000000f0: 99dc aa3b 67c5 a83d 7a9d dcbd be78 dcbb
00000100: 5701 cebc 6c04 9a3b 86f6 b13d 67e7 a53d
00000110: 49f7 243b 3e74 6b3d 0b60 1ebd d996 7cbd
00000120: 2f65 e73c 3076 293d e8b5 04bd a175 63bd
00000130: 0610 483d 26dc 403d db34 c23d 59c6 06be
00000140: fc76 093d 53c9 a2bd 8eea 14bc 7663 18bd
00000150: 3463 9abd 54f8 b2bd 92a4 babd 1a8d aabc
00000160: 8708 5fbd fff3 b2bd 029b 1cbd 51fe 9c3d
00000170: 6ba9 d5bd 02cf aabd b264 9839 f9d5 bbbd
00000180: 3829 683d 6463 01bd 5c30 ebbd ad64 cd3d
00000190: 6821 91bc b91e 75ba b006 c13d 2d88 b1bd
000001a0: e451 903d fe47 ad3b 0e76 ac3c 9dd4 d23c
000001b0: 0081 ae3d 6a53 38bd 7c06 99ba 296e 1abd
000001c0: 173a 88bb 7905 a8bb 12ba 323d 4e53 a33d
000001d0: 1552 77bd 8ed0 a8bd 8a29 243d b757 ab3d
000001e0: 6fdc 49bd 4ebb 14be 5c87 a2bb dd2b 2cbd
000001f0: f14d 7c3c 93c9 633c ea47 d63b 6944 64bd
00000200: e7e7 aebc e2b6 d9bd f306 293d aa34 9d3c
00000210: d94b f0bc eb4b 15be ddd1 bbbc bff7 0e3c
00000220: 8871 593b a47b adba ab69 20bc 9f61 09bd
00000230: 3e01 263d ad27 e2bc 0f09 b23d b860 cdbd
00000240: d7cb 1cbc 5077 6dbb 35d3 13be 5b0f 183d
00000250: 187f 01bc b0c0 57bd f818 99bd aa17 dabc
00000260: ce29 95bb 5863 ea3a 9c7e edbd 6976 07be
00000270: 3b75 873d 90ed 883d 863f 6bbb f221 8abb
00000280: 3bb5 77bd 011a 1bbd 5e70 b7bd afa2 b63c
00000290: 2a64 86bd 45fb 7dbc 0a5f febc 6144 063e
000002a0: 9d66 013e bdb7 55bd eff9 383c 4667 8bba
000002b0: 00a8 94bd 17fc 813d d394 5f3d b719 82bc
000002c0: 7a59 5abc a06b 6bbd ff1a 95bc 489f 01bd
000002d0: e599 de3a 97af a73d 4696 453d ef43 f53d
000002e0: d59d e93a 9499 1fbc ddc5 75bc a944 103e
000002f0: 8ba3 193d 9772 30bd 9d35 e33d 640b c73c
00000300: 264c d8bb 82a4 28ba a7a8 193c ae8c bebd
00000310: da11 a63d f47d 60bd 926e 023d e321 963d
00000320: ff45 89bc 77d1 afbc bbcd 9fbd e00b b73c
00000330: 0576 c43a df9a eebd 6ae4 7c3c 64b0 60bd
00000340: 852d ff3d 70a2 83bd b172 513d e6d1 a4bd
00000350: 06d3 8bba 513e 31bd dad2 38bd 396d 87bd
00000360: e4c5 b43b 92f2 43bd 929b b4bd d6db eabc
00000370: fb18 35bd 2221 aabd 48b7 6dbd e8fa 663b
00000380: a25e 76bc a26c d63c 03c3 b53d 21ab b93c
00000390: c8b4 80bc 1781 953d d683 833b eff9 66bd
000003a0: 2f9b 11bd d8e6 33bd fc22 a73b efde afbd
000003b0: 66a4 123c f20b 98bd b482 273c 48b5 5fbc
000003c0: 979d 2dbd 44a1 13bd fc03 213d e9db 893d
000003d0: 66f9 4c3b d3e4 56bd dc47 edb9 458f ae3d
000003e0: 5054 233c a6c2 a03d 6f59 113d 7246 ea3b
000003f0: 78cc 85bc a5c2 52bd 7079 843d 3aaa 36bc

layers.0.lin_dst.weight f4 [64, 1433]
-0.008361319 0.077259816 0.07841629 0.008705757 -0.122089714 -0.03306264 -0.045260202 -0.0338001
0.0747999 0.02952233 -0.0012143014 0.0047183177 0.0534556 0.024853252 -0.0010799255 -0.014543621
-0.042202216 0.094853215 0.01957372 -0.090526484 -0.0050817514 -0.058780175 -0.01226249 -0.059559304
-0.005249714 -0.041705497 -0.0508351 -0.03383744 0.037766103 -0.058570072 0.045486934 -0.0005686523
0.0019645465 0.015629549 0.00731712 -0.023094255 -0.08162041 -0.05804648 0.061587926 0.005600909
-0.010077033 -0.03872413 0.059477367 0.0059622778 0.051251996 0.0779055 0.025445594 -0.007277372
-0.025312008 0.0034678464 -0.0678818 -0.10147249 -0.01939356 0.0073051364 -0.0048772604 0.030016026
-0.06373859 -0.043717604 0.02677522 0.06757553 0.0052142856 0.082407765 -0.10772224 -0.006728261
-0.025147123 0.004700234 0.08689599 0.08100777 0.0025171808 0.057483904 -0.038665812 -0.061667297
0.02824649 0.041372478 -0.03240004 -0.0555321 0.048843406 0.04708495 0.09482738 -0.13161601
0.033560738 -0.07948556 -0.009089125 -0.03720423 -0.07538453 -0.08738771 -0.091134205 -0.020819236
-0.05445149 -0.08737945 -0.038233764 0.076656945 -0.104327045 -0.08340265 0.00029066723 -0.091716714
0.056679934 -0.031588927 -0.11483833 0.10028968 -0.017716125 -0.00093505863 0.09425104 -0.086685516
0.070468694 0.005288123 0.021052387 0.025736148 0.085206985 -0.045001425 -0.0011674906 -0.037702713
-0.0041573155 -0.0051276055 0.04363448 0.079748735 -0.060381014 -0.08242904 0.040078677 0.0836634
-0.049282487 -0.14524576 -0.0049599838 -0.04203402 0.015399442 0.0139030395 0.0065393345 -0.055729304
-0.021350814 -0.10630585 0.041266393 0.019190151 -0.029333042 -0.14579742 -0.022927219 0.008726059
0.0033179242 -0.00132357 -0.009790818 -0.033540364 0.04052853 -0.02760681 0.08693134 -0.10028213
-0.009570084 -0.0036234446 -0.14436038 0.03712402 -0.007903837 -0.052673995 -0.074754655 -0.026622612
-0.0045521026 0.001788239 -0.115964144 -0.13228764 0.06614157 0.066859365 -0.0035896017 -0.0042154724
-0.06047557 -0.037866596 -0.08956979 0.02229437 -0.065620735 -0.015501802 -0.031051178 0.13112022
0.126368 -0.05217718 0.011290058 -0.0010635636 -0.07258606 0.063469104 0.05458529 -0.015881402
-0.013326997 -0.057475686 -0.01820135 -0.031646043 0.001698312 0.08187788 0.048239015 0.11975848
0.0017823527 -0.009741206 -0.015000788 0.14088692 0.037509482 -0.04307803 0.1109421 0.024297424
-0.0066008745 -0.0006433205 0.009378589 -0.09304176 0.08108874 -0.05480762 0.03184373 0.07330682
-0.01675701 -0.021462185 -0.07802912 0.02234453 0.0014988786 -0.11650633 0.0154353175 -0.05485572
0.12459854 -0.06427467 0.05113477 -0.080478474 -0.0010667748 -0.04327232 -0.04512296 -0.066126294
0.0055167545 -0.047838755 -0.08818735 -0.02866928 -0.044213276 -0.08307101 -0.05803612 0.0035244767
-0.015037211 0.026174847 0.08875086 0.022664608 -0.015711203 0.073000126 0.004013519 -0.0563907
-0.035548385 -0.04392132 0.005100606 -0.08587443 0.008950328 -0.074241534 0.010224033 -0.013654061
-0.042386618 -0.036042467 0.03931044 0.06731398 0.0031276583 -0.052464318 -0.00045257702 0.0852342
0.009968832 0.07849626 0.03548568 0.007149511 -0.01633285 -0.05145516 0.06468475 -0.011148984
00000000: eafd 08bc 653a 9e3d b898 a03d 97a2 0e3c
00000010: 2c0a fabd b16c 07bd c362 39bd f971 0abd
00000020: b130 993d d0d8 f13c 3229 9fba 1e9c 9a3b
00000030: 42f4 5a3d 0c99 cb3c 498c 8dba 5e48 6ebc
00000040: 3bdc 2cbd 6742 c23d 1159 a03c f365 b9bd
00000050: d284 a6bb 7bc3 70bd 9ce8 48bc 75f4 73bd
00000060: cb05 acbb 62d3 2abd 7738 50bd 2199 0abd
00000070: a1b0 1a3d 2ce7 6fbd 8250 3a3d 9c11 15ba
00000080: 9fbf 003b 8a09 803c 74c4 ef3b 2a30 bdbc
00000090: 9a28 a7bd 25c2 6dbd 9f43 7c3d d487 b73b
000000a0: 241a 25bc 319d 1ebd 8a9e 733d 365f c33b
000000b0: 9ded 513d eb8c 9f3d 4773 d03c 0577 eebb
000000c0: 215b cfbc cf44 633b 9d05 8bbd cfd0 cfbd
000000d0: 3edf 9ebc ed5f ef3b 6dd1 9fbb 2be4 f53c
000000e0: 6189 82bd 3b11 33bd b557 db3c 0a65 8a3d
000000f0: 99dc aa3b 67c5 a83d 7a9d dcbd be78 dcbb
00000100: 5701 cebc 6c04 9a3b 86f6 b13d 67e7 a53d
00000110: 49f7 243b 3e74 6b3d 0b60 1ebd d996 7cbd
00000120: 2f65 e73c 3076 293d e8b5 04bd a175 63bd
00000130: 0610 483d 26dc 403d db34 c23d 59c6 06be
00000140: fc76 093d 53c9 a2bd 8eea 14bc 7663 18bd
00000150: 3463 9abd 54f8 b2bd 92a4 babd 1a8d aabc
00000160: 8708 5fbd fff3 b2bd 029b 1cbd 51fe 9c3d
00000170: 6ba9 d5bd 02cf aabd b264 9839 f9d5 bbbd
00000180: 3829 683d 6463 01bd 5c30 ebbd ad64 cd3d
00000190: 6821 91bc b91e 75ba b006 c13d 2d88 b1bd
000001a0: e451 903d fe47 ad3b 0e76 ac3c 9dd4 d23c
000001b0: 0081 ae3d 6a53 38bd 7c06 99ba 296e 1abd
000001c0: 173a 88bb 7905 a8bb 12ba 323d 4e53 a33d
000001d0: 1552 77bd 8ed0 a8bd 8a29 243d b757 ab3d
000001e0: 6fdc 49bd 4ebb 14be 5c87 a2bb dd2b 2cbd
000001f0: f14d 7c3c 93c9 633c ea47 d63b 6944 64bd
00000200: e7e7 aebc e2b6 d9bd f306 293d aa34 9d3c
00000210: d94b f0bc eb4b 15be ddd1 bbbc bff7 0e3c
00000220: 8871 593b a47b adba ab69 20bc 9f61 09bd
00000230: 3e01 263d ad27 e2bc 0f09 b23d b860 cdbd
00000240: d7cb 1cbc 5077 6dbb 35d3 13be 5b0f 183d
00000250: 187f 01bc b0c0 57bd f818 99bd aa17 dabc
00000260: ce29 95bb 5863 ea3a 9c7e edbd 6976 07be
00000270: 3b75 873d 90ed 883d 863f 6bbb f221 8abb
00000280: 3bb5 77bd 011a 1bbd 5e70 b7bd afa2 b63c
00000290: 2a64 86bd 45fb 7dbc 0a5f febc 6144 063e
000002a0: 9d66 013e bdb7 55bd eff9 383c 4667 8bba
000002b0: 00a8 94bd 17fc 813d d394 5f3d b719 82bc
000002c0: 7a59 5abc a06b 6bbd ff1a 95bc 489f 01bd
000002d0: e599 de3a 97af a73d 4696 453d ef43 f53d
000002e0: d59d e93a 9499 1fbc ddc5 75bc a944 103e
000002f0: 8ba3 193d 9772 30bd 9d35 e33d 640b c73c
00000300: 264c d8bb 82a4 28ba a7a8 193c ae8c bebd
00000310: da11 a63d f47d 60bd 926e 023d e321 963d
00000320: ff45 89bc 77d1 afbc bbcd 9fbd e00b b73c
00000330: 0576 c43a df9a eebd 6ae4 7c3c 64b0 60bd
00000340: 852d ff3d 70a2 83bd b172 513d e6d1 a4bd
00000350: 06d3 8bba 513e 31bd dad2 38bd 396d 87bd
00000360: e4c5 b43b 92f2 43bd 929b b4bd d6db eabc
00000370: fb18 35bd 2221 aabd 48b7 6dbd e8fa 663b
00000380: a25e 76bc a26c d63c 03c3 b53d 21ab b93c
00000390: c8b4 80bc 1781 953d d683 833b eff9 66bd
000003a0: 2f9b 11bd d8e6 33bd fc22 a73b efde afbd
000003b0: 66a4 123c f20b 98bd b482 273c 48b5 5fbc
000003c0: 979d 2dbd 44a1 13bd fc03 213d e9db 893d
000003d0: 66f9 4c3b d3e4 56bd dc47 edb9 458f ae3d
000003e0: 5054 233c a6c2 a03d 6f59 113d 7246 ea3b
000003f0: 78cc 85bc a5c2 52bd 7079 843d 3aaa 36bc

layers.1.att_src f4 [1, 1, 7]
-0.38098365 0.15049951 0.67631453 0.21533373 -0.6086116 0.63545656 0.055183753
00000000: 4a10 c3be 8b1c 1a3e f322 2d3f 7280 5c3e
00000010: f8cd 1bbf 48ad 223f 5c08 623d

layers.1.att_dst f4 [1, 1, 7]
-0.6410624 0.58427376 0.72004944 0.12695526 -0.36226836 -0.25916982 0.5954691
00000000: aa1c 24bf f792 153f 2955 383f 8f00 023e
00000010: 3d7b b9be e8b1 84be aa70 183f

layers.1.bias f4 [7]
-0.04666593 0.07851902 -0.016275998 -0.012373546 -0.052586712 0.032496966 0.0062703816
00000000: c624 3fbd 94ce a03d 3e55 85bc 6aba 4abc
00000010: 2a65 57bd 8a1b 053d c677 cd3b

layers.1.lin_src.weight f4 [7, 64]
-0.17808105 0.34911674 -0.11279253 -0.27542654 -0.10617468 0.08283671 -0.27502748 0.10385452
-0.052294668 -0.25615752 -0.24121165 -0.05145931 -0.052182782 0.06154286 -0.3178909 -0.12056895
0.16557904 -0.25212768 -0.025978023 0.055623848 -0.1914256 0.25306964 0.03340035 0.28080025
-0.17938907 0.06345282 0.3576129 -0.18758966 0.15458457 -0.14223841 -0.052585132 -0.2565246
0.10684597 -0.085877545 0.23547699 0.104961924 -0.19524212 -0.054456625 -0.20748529 -0.18221661
0.2192439 0.30078578 0.24762492 0.2922753 0.22591905 0.1917539 0.07641733 -0.0030280356
0.03711708 -0.16968727 0.30033055 -0.1368877 0.1887792 0.31179544 -0.33856323 -0.14988811
0.2915822 -0.04982232 -0.17465821 -0.14264679 -0.017924018 0.103048034 -0.059123192 0.04613463
0.20582052 0.103261895 0.19376543 0.04055627 0.35674402 0.15031005 -0.114498556 -0.09203194
0.20835477 -0.39537707 -0.11846691 -0.1305209 0.19033852 0.38583887 -0.2813776 0.16441113
-0.23238309 -0.32515654 -0.13510825 -0.116524085 -0.07015262 0.19078125 -0.19049269 -0.38276458
0.055053156 -0.21702111 -0.036377255 -0.23696567 0.45306444 -0.29370716 -0.37294564 -0.29597157
-0.14031382 -0.2824917 -0.05200115 0.13589872 0.27829903 0.01781482 0.31502926 0.20329256
0.3409575 -0.16987342 0.27391443 -0.07455185 -0.19836788 -0.37979493 -0.14693253 0.12823205
-0.27733383 -0.18296523 0.24838719 -0.42878783 -0.15914124 0.28794375 0.3736722 0.2595294
-0.34578627 0.2195409 0.060228813 -0.260753 -0.24094518 0.16732013 -0.06497316 0.11591105
0.2870843 -0.050152738 -0.22388723 -0.04396971 -0.009572326 -0.3228178 -0.05876297 -0.1905594
0.22198509 0.22204444 0.27555954 0.3253799 0.17599012 -0.11939873 0.123109505 0.2691035
-0.33589208 0.0986283 0.16553816 -0.21343078 -0.20240727 0.3270389 -0.1816312 0.17860442
-0.15495583 0.13422133 -0.031842414 0.26558423 -0.16722478 0.009592062 -0.17484014 -0.064739935
0.067783296 -0.025071086 0.1992038 -0.023062002 -0.2031425 0.27827662 -0.255286 0.19083028
0.061978966 0.08934047 -0.2651677 0.24732248 0.11524112 0.095572725 -0.24068986 -0.27642664
-0.1828239 0.33948305 0.0801434 -0.20412034 -0.15679953 0.056494664 0.05627408 -0.43424892
-0.08517708 -0.31585616 -0.4008372 -0.2547172 -0.014956418 0.030872526 0.3514628 -0.28383017
-0.019949516 0.23764953 -0.243934 -0.3451386 -0.28966203 -0.13432221 -0.12228089 -0.10713951
0.2937838 -0.12072829 0.07840491 -0.18579768 0.07052237 -0.31959617 0.13035242 -0.2584531
-0.018594077 0.30467692 -0.16550659 0.26839474 0.24895552 -0.061177142 0.25950676 -0.10824706
0.29135558 -0.29250717 0.1614092 -0.22885016 0.0010448613 0.24099666 -0.17840166 0.2899984
-0.13943289 0.31890377 -0.22801001 0.19816862 0.044092983 -0.10573902 -0.3136046 0.14203857
0.019129362 -0.2768969 -0.2808145 -0.29525948 0.13750874 -0.2276633 0.19084187 0.22770935
-0.29194126 0.14872742 0.19630189 -0.27078405 0.22434182 0.14532888 -0.15249471 0.16761287
0.3197604 0.039824124 0.11931414 0.1601611 0.16163048 0.22103177 0.17696017 0.04254617
00000000: e15a 36be 6ebf b23e c5ff e6bd b504 8dbe
00000010: 1c72 d9bd 4ba6 a93d 67d0 8cbe aeb1 d43d
00000020: ef32 56bd 1427 83be 3000 77be ffc6 52bd
00000030: 9dbd 55bd 5e14 7c3d 99c2 a2be dbec f6bd
00000040: 8d8d 293e e116 81be ddcf d4bc d5d5 633d
00000050: 1305 44be 5892 813e cece 083d 0dc5 8f3e
00000060: c5b1 37be 8df3 813d 0a19 b73e 8117 40be
00000070: 6b4b 1e3e f2a6 11be 8263 57bd 3157 83be
00000080: 0fd2 da3d 91e0 afbd e120 713e 47f6 d63d
00000090: 8ded 47be e90d 5fbd 0677 54be fe96 3abe
000000a0: 7981 603e 9800 9a3e 6391 7d3e 1ca5 953e
000000b0: 5357 673e 225b 443e b080 9c3d 0272 46bb
000000c0: 1408 183d 80c2 2dbe edc4 993e 4a2c 0cbe
000000d0: 564f 413e a7a3 9f3e 2958 adbe 457c 19be
000000e0: 434a 953e 7d12 4cbd 9ad9 32be 0012 12be
000000f0: 64d5 92bc d90a d33d 292b 72bd aaf7 3c3d
00000100: 9dc2 523e f97a d33d 726a 463e 551e 263d
00000110: 27a7 b63e e1ea 193e 387e eabd 3e7b bcbd
00000120: f45a 553e dd6e cabe c89e f2bd 45a7 05be
00000130: 1ae8 423e ac8c c53e ba10 90be 645b 283e
00000140: d5f5 6dbe eb7a a6be d159 0abe 2ea4 eebd
00000150: 2dac 8fbd 295c 433e 8410 43be b8f9 c3be
00000160: 6b7f 613d c83a 5ebe 5100 15bd 21a7 72be
00000170: 10f8 e73e c960 96be bbf2 bebe 9689 97be
00000180: 6dae 0fbe c1a2 90be 28ff 54bd 0929 0b3e
00000190: 367d 8e3e 63f0 913c 844b a13e ed2b 503e
000001a0: fb91 ae3e 4cf3 2dbe 833e 8c3e a4ae 98bd
000001b0: f320 4bbe 7b74 c2be 7b75 16be 434f 033e
000001c0: b3fe 8dbe 3d5b 3bbe 3659 7e3e 148a dbbe
000001d0: ecf5 22be 5d6d 933e f651 bf3e 0ae1 843e
000001e0: e60a b1be 54cf 603e 7db2 763d 6b81 85be
000001f0: 55ba 76be f855 2b3e a610 85bd c662 ed3d
00000200: b7fc 923e f56c 4dbd b242 65be 9519 34bd
00000210: 3fd5 1cbc 6048 a5be 71b1 70bd 0122 43be
00000220: 0f50 633e 9e5f 633e 2416 8d3e 3298 a63e
00000230: c136 343e 5287 f4bd d620 fc3d efc7 893e
00000240: 0cfa abbe a2fd c93d d682 293e 998d 5abe
00000250: da43 4fbe a571 a73e 87fd 39be 14e4 363e
00000260: beac 1ebe 5171 093e 316d 02bd a8fa 873e
00000270: f93c 2bbe 0628 1d3c 4b09 33be 5f96 84bd
00000280: f8d1 8a3d e161 cdbc 15fc 4b3e 86ec bcbc
00000290: 9604 50be 467a 8e3e d9b4 82be 0369 433e
000002a0: a8dd 7d3d 23f8 b63d 10c4 87be 1b42 7d3e
000002b0: 8903 ec3d a2bb c33d 6777 76be cb87 8dbe
000002c0: 3036 3bbe b9d0 ad3e 3922 a43d ec04 51be
000002d0: 0e90 20be f366 673d a67f 663d e055 debe
000002e0: 5271 aebd e6b7 a1be 893a cdbe 4b6a 82be
000002f0: c40b 75bc 61e8 fc3c eff2 b33e 3052 91be
00000300: 2b6d a3bc 665a 733e d6c9 79be 02b6 b0be
00000310: 954e 94be c38b 09be 676e fabd f66b dbbd
00000320: d56a 963e 6540 f7bd c192 a03d bf41 3ebe
00000330: 086e 903d 1ca2 a3be 1b7b 053e f753 84be
00000340: 9b52 98bc 9dfe 9b3e 8f7a 29be 096b 893e
00000350: 32ee 7e3e e294 7abd 12de 843e a2b0 ddbd
00000360: 8f2c 953e 80c3 95be 7448 253e b257 6abe
00000370: baf3 883a d4c7 763e edae 36be ac7a 943e
00000380: 7fc7 0ebe 5b47 a33e 757b 69be b7ec 4a3e
00000390: d89a 343d b38d d8bd c890 a0be 8f72 113e
000003a0: 2eb5 9c3c 6ec5 8dbe ebc6 8fbe 402c 97be
000003b0: 17cf 0c3e 9120 69be 0d6c 433e a42c 693e
000003c0: 5379 95be 004c 183e 5d03 493e 35a4 8abe
000003d0: ddb9 653e 18d1 143e 9327 1cbe b5a2 2b3e
000003e0: a3b7 a33e 9f1e 233d f95a f43d 4501 243e
000003f0: 7682 253e 2756 623e 0c35 353e e544 2e3d

layers.1.lin_dst.weight f4 [7, 64]
-0.17808105 0.34911674 -0.11279253 -0.27542654 -0.10617468 0.08283671 -0.27502748 0.10385452
-0.052294668 -0.25615752 -0.24121165 -0.05145931 -0.052182782 0.06154286 -0.3178909 -0.12056895
0.16557904 -0.25212768 -0.025978023 0.055623848 -0.1914256 0.25306964 0.03340035 0.28080025
-0.17938907 0.06345282 0.3576129 -0.18758966 0.15458457 -0.14223841 -0.052585132 -0.2565246
0.10684597 -0.085877545 0.23547699 0.104961924 -0.19524212 -0.054456625 -0.20748529 -0.18221661
0.2192439 0.30078578 0.24762492 0.2922753 0.22591905 0.1917539 0.07641733 -0.0030280356
0.03711708 -0.16968727 0.30033055 -0.1368877 0.1887792 0.31179544 -0.33856323 -0.14988811
0.2915822 -0.04982232 -0.17465821 -0.14264679 -0.017924018 0.103048034 -0.059123192 0.04613463
0.20582052 0.103261895 0.19376543 0.04055627 0.35674402 0.15031005 -0.114498556 -0.09203194
0.20835477 -0.39537707 -0.11846691 -0.1305209 0.19033852 0.38583887 -0.2813776 0.16441113
-0.23238309 -0.32515654 -0.13510825 -0.116524085 -0.07015262 0.19078125 -0.19049269 -0.38276458
0.055053156 -0.21702111 -0.036377255 -0.23696567 0.45306444 -0.29370716 -0.37294564 -0.29597157
-0.14031382 -0.2824917 -0.05200115 0.13589872 0.27829903 0.01781482 0.31502926 0.20329256
0.3409575 -0.16987342 0.27391443 -0.07455185 -0.19836788 -0.37979493 -0.14693253 0.12823205
-0.27733383 -0.18296523 0.24838719 -0.42878783 -0.15914124 0.28794375 0.3736722 0.2595294
-0.34578627 0.2195409 0.060228813 -0.260753 -0.24094518 0.16732013 -0.06497316 0.11591105
0.2870843 -0.050152738 -0.22388723 -0.04396971 -0.009572326 -0.3228178 -0.05876297 -0.1905594
0.22198509 0.22204444 0.27555954 0.3253799 0.17599012 -0.11939873 0.123109505 0.2691035
-0.33589208 0.0986283 0.16553816 -0.21343078 -0.20240727 0.3270389 -0.1816312 0.17860442
-0.15495583 0.13422133 -0.031842414 0.26558423 -0.16722478 0.009592062 -0.17484014 -0.064739935
0.067783296 -0.025071086 0.1992038 -0.023062002 -0.2031425 0.27827662 -0.255286 0.19083028
0.061978966 0.08934047 -0.2651677 0.24732248 0.11524112 0.095572725 -0.24068986 -0.27642664
-0.1828239 0.33948305 0.0801434 -0.20412034 -0.15679953 0.056494664 0.05627408 -0.43424892
-0.08517708 -0.31585616 -0.4008372 -0.2547172 -0.014956418 0.030872526 0.3514628 -0.28383017
-0.019949516 0.23764953 -0.243934 -0.3451386 -0.28966203 -0.13432221 -0.12228089 -0.10713951
0.2937838 -0.12072829 0.07840491 -0.18579768 0.07052237 -0.31959617 0.13035242 -0.2584531
-0.018594077 0.30467692 -0.16550659 0.26839474 0.24895552 -0.061177142 0.25950676 -0.10824706
0.29135558 -0.29250717 0.1614092 -0.22885016 0.0010448613 0.24099666 -0.17840166 0.2899984
-0.13943289 0.31890377 -0.22801001 0.19816862 0.044092983 -0.10573902 -0.3136046 0.14203857
0.019129362 -0.2768969 -0.2808145 -0.29525948 0.13750874 -0.2276633 0.19084187 0.22770935
-0.29194126 0.14872742 0.19630189 -0.27078405 0.22434182 0.14532888 -0.15249471 0.16761287
0.3197604 0.039824124 0.11931414 0.1601611 0.16163048 0.22103177 0.17696017 0.04254617
00000000: e15a 36be 6ebf b23e c5ff e6bd b504 8dbe
00000010: 1c72 d9bd 4ba6 a93d 67d0 8cbe aeb1 d43d
00000020: ef32 56bd 1427 83be 3000 77be ffc6 52bd
00000030: 9dbd 55bd 5e14 7c3d 99c2 a2be dbec f6bd
00000040: 8d8d 293e e116 81be ddcf d4bc d5d5 633d
00000050: 1305 44be 5892 813e cece 083d 0dc5 8f3e
00000060: c5b1 37be 8df3 813d 0a19 b73e 8117 40be
00000070: 6b4b 1e3e f2a6 11be 8263 57bd 3157 83be
00000080: 0fd2 da3d 91e0 afbd e120 713e 47f6 d63d
00000090: 8ded 47be e90d 5fbd 0677 54be fe96 3abe
000000a0: 7981 603e 9800 9a3e 6391 7d3e 1ca5 953e
000000b0: 5357 673e 225b 443e b080 9c3d 0272 46bb
000000c0: 1408 183d 80c2 2dbe edc4 993e 4a2c 0cbe
000000d0: 564f 413e a7a3 9f3e 2958 adbe 457c 19be
000000e0: 434a 953e 7d12 4cbd 9ad9 32be 0012 12be
000000f0: 64d5 92bc d90a d33d 292b 72bd aaf7 3c3d
00000100: 9dc2 523e f97a d33d 726a 463e 551e 263d
00000110: 27a7 b63e e1ea 193e 387e eabd 3e7b bcbd
00000120: f45a 553e dd6e cabe c89e f2bd 45a7 05be
00000130: 1ae8 423e ac8c c53e ba10 90be 645b 283e
00000140: d5f5 6dbe eb7a a6be d159 0abe 2ea4 eebd
00000150: 2dac 8fbd 295c 433e 8410 43be b8f9 c3be
00000160: 6b7f 613d c83a 5ebe 5100 15bd 21a7 72be
00000170: 10f8 e73e c960 96be bbf2 bebe 9689 97be
00000180: 6dae 0fbe c1a2 90be 28ff 54bd 0929 0b3e
00000190: 367d 8e3e 63f0 913c 844b a13e ed2b 503e
000001a0: fb91 ae3e 4cf3 2dbe 833e 8c3e a4ae 98bd
000001b0: f320 4bbe 7b74 c2be 7b75 16be 434f 033e
000001c0: b3fe 8dbe 3d5b 3bbe 3659 7e3e 148a dbbe
000001d0: ecf5 22be 5d6d 933e f651 bf3e 0ae1 843e
000001e0: e60a b1be 54cf 603e 7db2 763d 6b81 85be
000001f0: 55ba 76be f855 2b3e a610 85bd c662 ed3d
00000200: b7fc 923e f56c 4dbd b242 65be 9519 34bd
00000210: 3fd5 1cbc 6048 a5be 71b1 70bd 0122 43be
00000220: 0f50 633e 9e5f 633e 2416 8d3e 3298 a63e
00000230: c136 343e 5287 f4bd d620 fc3d efc7 893e
00000240: 0cfa abbe a2fd c93d d682 293e 998d 5abe
00000250: da43 4fbe a571 a73e 87fd 39be 14e4 363e
00000260: beac 1ebe 5171 093e 316d 02bd a8fa 873e
00000270: f93c 2bbe 0628 1d3c 4b09 33be 5f96 84bd
00000280: f8d1 8a3d e161 cdbc 15fc 4b3e 86ec bcbc
00000290: 9604 50be 467a 8e3e d9b4 82be 0369 433e
000002a0: a8dd 7d3d 23f8 b63d 10c4 87be 1b42 7d3e
000002b0: 8903 ec3d a2bb c33d 6777 76be cb87 8dbe
000002c0: 3036 3bbe b9d0 ad3e 3922 a43d ec04 51be
000002d0: 0e90 20be f366 673d a67f 663d e055 debe
000002e0: 5271 aebd e6b7 a1be 893a cdbe 4b6a 82be
000002f0: c40b 75bc 61e8 fc3c eff2 b33e 3052 91be
00000300: 2b6d a3bc 665a 733e d6c9 79be 02b6 b0be
00000310: 954e 94be c38b 09be 676e fabd f66b dbbd
00000320: d56a 963e 6540 f7bd c192 a03d bf41 3ebe
00000330: 086e 903d 1ca2 a3be 1b7b 053e f753 84be
00000340: 9b52 98bc 9dfe 9b3e 8f7a 29be 096b 893e
00000350: 32ee 7e3e e294 7abd 12de 843e a2b0 ddbd
00000360: 8f2c 953e 80c3 95be 7448 253e b257 6abe
00000370: baf3 883a d4c7 763e edae 36be ac7a 943e
00000380: 7fc7 0ebe 5b47 a33e 757b 69be b7ec 4a3e
00000390: d89a 343d b38d d8bd c890 a0be 8f72 113e
000003a0: 2eb5 9c3c 6ec5 8dbe ebc6 8fbe 402c 97be
000003b0: 17cf 0c3e 9120 69be 0d6c 433e a42c 693e
000003c0: 5379 95be 004c 183e 5d03 493e 35a4 8abe
000003d0: ddb9 653e 18d1 143e 9327 1cbe b5a2 2b3e
000003e0: a3b7 a33e 9f1e 233d f95a f43d 4501 243e
000003f0: 7682 253e 2756 623e 0c35 353e e544 2e3d
