tutorials/cloud_deployment/google_vertexai/gat_cora/model.pth (torch, 372175 bytes, 10 tensors)

layers.0.att_src f4 [1, 8, 8]
00000000: 965c 123f 45ef babe 5b47 7dbd 9464 22bc
00000010: cb31 073e b33f 98be 8d0f bdbd b7fe de3e
00000020: a014 1e3e 7fc6 8bbe 689b c1bd c633 b13e
00000030: 7fc9 bf3e 8b15 673e 976d 3abe 42c2 d93e
00000040: 938a 1d3f 0ba1 ee3e de83 a83d 8717 223e
00000050: c5dd f1be d651 f53d 6fdc bb3d a267 0c3f
00000060: d330 bf3b 8d66 ea3e 3c22 1ebf b7e8 d5be
00000070: e76c 003f 69cd da3b e5ef cf3e e923 32be
00000080: ee30 453e 1060 69be 053d 68be a5c0 c5be
00000090: 698f fbbe 24c6 4abe 8b98 353e 62f8 133f
000000a0: ae93 873e abad 8dbe 5a26 00be 09d4 90be
000000b0: b4fe e73e 007d 05bf 7347 a7be fbcd 34be
000000c0: 14f4 9ebd 9dd5 b8be 9e17 d93d 38b0 e4be
000000d0: 4158 f63d 2761 70be 1754 9b3c 9fab 073d
000000e0: 998d 1b3e 3f08 023e ffaf d63e 1694 33bc
000000f0: 01b8 613e e315 10be aa12 33be aa39 3b3b
0.57172525 -0.36510673 -0.061835628 -0.009911675 0.13202588 -0.297361 -0.09231482 0.43553707
0.15437555 -0.27299878 -0.094534695 0.34609812 0.37458417 0.22566812 -0.18205868 0.4253102
0.6153957 0.4660724 0.08228277 0.15829287 -0.4723951 0.119784996 0.09172904 0.5484563
0.0058346777 0.45781365 -0.6177099 -0.4177911 0.5016617 0.006677319 0.40612713 -0.17396511
0.19256946 -0.22790551 -0.22679527 -0.3862354 -0.4913285 -0.19802147 0.17733972 0.5780088
0.26479858 -0.2767156 -0.1251463 -0.2828677 0.4531151 -0.5214386 -0.326717 -0.176567
-0.07761398 -0.36100474 0.10600208 -0.44665694 0.12028552 -0.2347456 0.018960996 0.033122655
0.15190734 0.12698458 0.4193115 -0.010960599 0.22042848 -0.14070849 -0.17487589 0.0028568306

layers.0.att_dst f4 [1, 8, 8]
00000000: 7f98 f73e 71a3 953e e418 bfbe 708d 9ebe
00000010: 5af1 033e e59e aabe 5583 053d c3e0 e23e
00000020: 481a 963e 5de0 a63e ff8b 013f 274f 8f3e
00000030: c242 1ebd 69c6 e2be f34d aabd 5bee 6d3d
00000040: 8aeb 9b3d b1ac 51bd 54b5 f13d 968d 03be
00000050: 3c63 383e 746b 363e ed69 e8be be1c 6ebe
00000060: fce2 933e 4a26 2f3e 5fbf 24be 578d 81be
00000070: 5ca2 f33e 81e4 55bd f87f dd3d bcb5 393e
00000080: 46ec a53e 8ab6 8f3e 858b c0be 8f73 b13e
00000090: f002 c23e d089 75be cdbf f33e 903f f33e
000000a0: d557 ddbe 11ce 853e c085 2fbe b3f7 b73e
000000b0: e826 bb3d 05e7 94bc dbe7 14be b708 3fbe
000000c0: 4884 b0be c299 1abe ea7e 3bbe 34ed 0ebf
000000d0: e188 1fbf cfa7 30be cb9c b0be cd47 9dbe
000000e0: 0212 563e 988f cf3d 623f c1bd a98a b83e
000000f0: a59a 963e 5cda 8fbe dc71 813e ba2f 803e
0.48358533 0.29226258 -0.37323678 -0.30967283 0.12885037 -0.33324352 0.03259595 0.44312105
0.29316926 0.3259305 0.5060424 0.27990076 -0.038637884 -0.44292 -0.08315649 0.05808864
0.07613285 -0.051190082 0.11802164 -0.1284698 0.18006605 0.17814428 -0.45393315 -0.23253152
0.28884113 0.1710445 -0.16088627 -0.25303146 0.47584808 -0.05221987 0.10815424 0.18135732
0.32406825 0.28068954 -0.37606445 0.34658477 0.37892866 -0.23978353 0.4760727 0.47509432
-0.43231073 0.2613378 -0.17140865 0.35931167 0.0913828 -0.018176565 -0.14541571 -0.18655668
-0.34475923 -0.15097716 -0.18310133 -0.55830693 -0.62318236 -0.17251514 -0.34494624 -0.30718842
0.20905307 0.1013481 -0.094359174 0.3604329 0.2941486 -0.28096282 0.2528218 0.25036412

layers.0.bias f4 [64]
00000000: 3ea9 c83c 870d b53d c2b9 74bd e9c8 6abd
00000010: 0fa0 3a3a 70bf 8d3d 0bd7 a13c f7f5 bbbc
00000020: 531e 893c e151 80bd b897 733d 4bd7 da3d
00000030: 39d0 85bc 045e dbbb 20c2 263d 9f6b 1c3d
00000040: 7eae d63c 5e2e a3bd eab3 8bbc 1580 82bb
00000050: 5abe 42bd e388 b23c bfca 81bd bcdc cbbd
00000060: 9c77 f4bb a2d4 80bc ff34 993c e70b 143d
00000070: 3610 21bd 4b2b 9a3d d963 0c3d fdf8 223d
00000080: d881 1abd c6e1 823d cdaa c93c a40b 3abc
00000090: 3ed8 0cbc 7432 3c3d a57f 8cbc fbf7 623d
000000a0: 9846 3bbc 4b48 793c 1ecc 38bc 8ba7 ef3d
000000b0: 9c36 4e3d 2912 33bd 4112 7d3b 6e36 80bd
000000c0: 24e3 27bc e07f dbbb dded 243d ac59 66bc
000000d0: ac7f 59b9 0c01 c33a b226 52bd e247 6f3c
000000e0: b00e 1b39 9064 1b3d c7c9 2fbd 68ff b93b
000000f0: 1ea1 903c ca3b d13d c472 e13c 3d33 a03c
0.024494763 0.08840471 -0.059747465 -0.05732051 0.00071191875 0.069212794 0.01975586 -0.022944434
0.016738093 -0.06265617 0.059470862 0.10685595 -0.01633464 -0.006694557 0.040712476 0.038188573
0.026206251 -0.07967828 -0.017053563 -0.0039825537 -0.047544815 0.021793788 -0.06337499 -0.09954211
-0.0074605476 -0.015726391 0.018702028 0.036144163 -0.0393221 0.07527789 0.03427491 0.039788235
-0.037721485 0.06390719 0.024617577 -0.011355314 -0.008596478 0.045946553 -0.01715071 0.055412274
-0.011430405 0.01521499 -0.011279134 0.11701878 0.05034505 -0.04371849 0.0038615617 -0.06260382
-0.010247026 -0.0066985935 0.040265907 -0.014059465 -0.00020742294 0.0014877631 -0.051306434 0.014604541
0.00014787423 0.0379377 -0.04291704 0.0056761988 0.017654952 0.10216482 0.027520545 0.019555682

layers.0.lin_src.weight f4 [64, 1433]
00000000: 36a7 acbc cdda 923c 7cc1 7b3d 53a6 97bd
00000010: 90ab c53b 3465 b4bd 642e f5bd 53b7 5cbd
00000020: 0e83 52bd 5544 91bd 48cc 97b9 4947 f4bc
00000030: 333a 253d 1407 1bbd 45f3 9d3c d51d ad3c
00000040: 9111 e5bc 83f8 e5bc db43 843c e33c 69be
00000050: 6e89 81bb 15e4 7dbd 3505 1ebd f711 40bd
00000060: 6038 4cb9 f8ce 483e 2a95 893d f297 e83d
00000070: 4721 b43d 0afb 3ebd 2cae 503d 16c9 133c
00000080: 9549 0fbb 6ac2 8a3b bd8f c6bc 1037 463c
00000090: d4cc 14be 239c e83b d4dd 4e3c c4c9 80bd
000000a0: 378e 233e 622f 0ebc 44c7 68bb a7bc 52bc
000000b0: eb04 4dbd ccc9 5a3d 3a60 153d 87e6 a83d
000000c0: ff0f dc3d e85a 353b c548 8d3d a0e1 31be
000000d0: d815 bb3d 94e7 b4bb 21c7 2b3d 2c35 fbbd
000000e0: 13ea 303e 3bc1 81bb 9a0f f2bd f658 25bd
000000f0: bf9e 33bb d8d6 cdbd 6de8 ab3c 2e15 02bd
00000100: 13ef 0a3e 2248 533c 9c79 873b 13f9 653d
00000110: ca6c 033c b885 1e3e 97d1 cc3d 10e9 903d
00000120: d8ea 52bd 58ce 1cbd 7f09 5eba d8cc bdbb
00000130: 92f2 103e f86d 3b3c 7b71 b03d 1daa 723d
00000140: dad4 00be ef7f a23d 2671 c03d 83c5 f63c
00000150: 26e4 ac3d 0137 a6bd 84a0 90bd cb4f 773d
00000160: 82cb 9abd d229 edbd eb6e 813c cc26 4e3d
00000170: bb2a 913c 8375 163e c651 f5bd 49cd f1bc
00000180: 0542 cd3c 2250 b6bd fd16 d53d e76e 0dbe
00000190: e0f9 5dbd ac64 0b3b 4a4f 85bd 0f71 63bd
000001a0: 8569 5ebd 93ee b9bb 08e6 193c 255d cbbd
000001b0: f26b 8e3d 2f09 d1bc fc7d c5ba aa74 f53b
000001c0: 44f3 193e 8c4a 21bb 79b4 4fbd a477 833c
000001d0: 218c 413d ca9d 063d a5eb 46be ec20 c4bc
000001e0: 97e3 b8bd 4c66 0f3d 143d 5a3d e7ac 19be
000001f0: df98 52bd 7205 67bc 2adb 883d 18dd 41bd
00000200: 46ef 20be c373 bcbc d938 d2bd d345 eebd
00000210: 63a9 c83c 399c d5bd f6f5 e4bc 220d 3ebe
00000220: 4ecf 643d b73d c6ba d3ab 063b 1cf8 0b3e
00000230: b3d5 a5bd 9b1d 9dbd 73dd a03d 1776 eabd
00000240: 2f6d 113b 1a95 91ba 686b 4cbd e640 cc3d
00000250: e234 27bd 565d 6b3c df67 8f3c 34ee 923d
00000260: d4e3 46bd b85a 06bd 7bd9 dabd 2d32 a0bd
00000270: 9326 84bd 70a5 7dbc ec94 363a 0e65 ca3c
00000280: d424 46bd 2c5c 31bc add9 1cbe 92b1 223d
00000290: 3cc1 473d 46f2 9cbd 50d8 9f3d fe26 333c
000002a0: 8625 6bbd 96a9 46bd 1ddd 403d 8f8b 093a
000002b0: b666 cfbc de51 2d3b b49a aa3d 6580 4cbd
000002c0: 7139 18be b8a7 9e3c 7301 c63d 492c c23c
000002d0: dcf0 1a3b 0f8b fcbc 9907 24bd 9e17 1e3e
000002e0: a079 fa3b 0a6a db3b 27c9 623d 1224 28bd
000002f0: 7d83 9e3d 9a40 433d a339 4cbb 3807 923c
00000300: 2503 3d3b ea6c 98ba 4300 0b3e 125e 95bc
00000310: de5f 833d 5b4e c4bc e1d6 00be dc00 94bd
00000320: ee86 a93c f7e3 43bd fe02 9a3b 90dc 203d
00000330: 5b7f 0c3b 00af ff3d 2294 bfbc 633b febd
00000340: 62af c13b 9062 443d e039 2f3d d6ec 20bd
00000350: 4941 99bd 2f97 b63c b833 113d 2bb3 0c3d
00000360: 2f73 a63b f39f 91bd c6b4 f6bc a0dd 38bd
00000370: 85c2 7fbb 3db0 bf3d 8e10 153c 90ad 1cb9
00000380: 8e8c 023d 5bc9 9ebc 8199 51bd 4a08 a7bd
00000390: 932d a43d 1b9d 54bd f049 12bd ce06 b3bc
000003a0: 6c4b 4dbd 1018 0e3e cbd2 ebbd ec87 34bd
000003b0: e7cf d53c 075d 86bd 14cd 6dbd db69 d6bc
000003c0: 895a 53bd e3af 71bc d298 d5bd 47bd aa3d
000003d0: 1340 5dbd 9538 1dbc 8c13 79bb 4d44 9dbd
000003e0: 5369 443d 08de 0dbd fe20 14be 2869 553c
000003f0: 94e8 1e3c 22df 0c3b a539 993c 61d4 893c
-0.021075826 0.017926598 0.061463818 -0.07404771 0.0060324147 -0.088083655 -0.11971739 -0.05388577
-0.051394515 -0.070931114 -0.00028953166 -0.029819148 0.040338706 -0.037848547 0.019281039 0.02113239
-0.027962478 -0.028072601 0.016145637 -0.22777133 -0.0039531505 -0.061985094 -0.038579185 -0.046892133
-0.00019475957 0.19610202 0.06717904 0.11357106 0.0879541 -0.04662613 0.050947353 0.009020111
-0.0021863927 0.0042346017 -0.024238462 0.012098089 -0.1453126 0.007098691 0.01262613 -0.06288484
0.1597222 -0.008678289 -0.0035519162 -0.012862361 -0.05005352 0.053415105 0.036468722 0.082470946
0.107452385 0.0027672593 0.06898645 -0.17371225 0.09135026 -0.0055207703 0.04193795 -0.12266001
0.17276792 -0.0039598024 -0.11819382 -0.040368043 -0.0027407852 -0.10050744 0.020984853 -0.03175848
0.13567762 0.012895616 0.00413437 0.05614574 0.008021543 0.15480697 0.100009136 0.07075703
-0.051493496 -0.038282722 -0.0008470043 -0.0057922415 0.14155033 0.011439793 0.08615395 0.059244264
-0.12581196 0.07934558 0.09396581 0.030123478 0.08441953 -0.0811596 -0.07061866 0.06037883
-0.07558347 -0.11580242 0.01579996 0.05032997 0.01772057 0.14693265 -0.11978488 -0.029516833
0.025055895 -0.08902003 0.10404775 -0.13811837 -0.054193377 0.0021269722 -0.06509264 -0.055527743
-0.05429985 -0.005674192 0.009393223 -0.09929875 0.06954183 -0.025517074 -0.0015067453 0.007490714
0.15034205 -0.0024611084 -0.05070922 0.01604826 0.047252778 0.032865323 -0.19425829 -0.02394148
-0.09027784 0.035009667 0.053280905 -0.15007363 -0.05141532 -0.014100419 0.06682427 -0.047329992
-0.15716276 -0.023004418 -0.10264749 -0.11634412 0.024494832 -0.10430188 -0.027949315 -0.18559697
0.055861764 -0.0015124594 0.0020549193 0.13668865 -0.080974005 -0.076716624 0.07854738 -0.11448305
0.0022190323 -0.0011107058 -0.049907118 0.09973316 -0.040821917 0.014365515 0.017505584 0.0717434
-0.048557118 -0.03280136 -0.10686012 -0.0782207 -0.0645267 -0.015481338 0.000696494 0.02470639
-0.048374966 -0.010825198 -0.15317412 0.039720125 0.048768267 -0.076633975 0.0780493 0.010934589
-0.057408832 -0.048501574 0.04708587 0.0005246931 -0.025317531 0.0026446502 0.083302885 -0.049927134
-0.14865662 0.019367084 0.09668245 0.023702757 0.0023642099 -0.030828027 -0.04004631 0.15438697
0.0076438934 0.0066959905 0.055367615 -0.041050024 0.07739923 0.04766903 -0.0031162284 0.017825708
0.0028840986 -0.0011629139 0.13574319 -0.018233333 0.064147696 -0.023963144 -0.1258197 -0.072267264
0.020694222 -0.047824826 0.0047000637 0.039272845 0.0021438214 0.124845505 -0.023386065 -0.12413671
0.0059108 0.04794556 0.042779803 -0.039288364 -0.07483155 0.022288887 0.035449713 0.034350555
0.005079649 -0.07110586 -0.030115496 -0.045133233 -0.0039025855 0.09359787 0.009098185 -0.00014941976
0.031872325 -0.019383123 -0.051171783 -0.08155878 0.08016505 -0.05190764 -0.035715044 -0.02185383
-0.050120756 0.13876367 -0.11514815 -0.044074938 0.026100112 -0.06560712 -0.058056906 -0.026173523
-0.051600013 -0.014751407 -0.10429539 0.08336883 -0.054016184 -0.00959601 -0.0038006036 -0.07679043
0.047952008 -0.034635574 -0.1446571 0.0130255595 0.009699006 0.0021495302 0.018704245 0.016824903

layers.0.lin_dst.weight f4 [64, 1433]
00000000: 36a7 acbc cdda 923c 7cc1 7b3d 53a6 97bd
00000010: 90ab c53b 3465 b4bd 642e f5bd 53b7 5cbd
00000020: 0e83 52bd 5544 91bd 48cc 97b9 4947 f4bc
00000030: 333a 253d 1407 1bbd 45f3 9d3c d51d ad3c
00000040: 9111 e5bc 83f8 e5bc db43 843c e33c 69be
00000050: 6e89 81bb 15e4 7dbd 3505 1ebd f711 40bd
00000060: 6038 4cb9 f8ce 483e 2a95 893d f297 e83d
00000070: 4721 b43d 0afb 3ebd 2cae 503d 16c9 133c
00000080: 9549 0fbb 6ac2 8a3b bd8f c6bc 1037 463c
00000090: d4cc 14be 239c e83b d4dd 4e3c c4c9 80bd
000000a0: 378e 233e 622f 0ebc 44c7 68bb a7bc 52bc
000000b0: eb04 4dbd ccc9 5a3d 3a60 153d 87e6 a83d
000000c0: ff0f dc3d e85a 353b c548 8d3d a0e1 31be
000000d0: d815 bb3d 94e7 b4bb 21c7 2b3d 2c35 fbbd
000000e0: 13ea 303e 3bc1 81bb 9a0f f2bd f658 25bd
000000f0: bf9e 33bb d8d6 cdbd 6de8 ab3c 2e15 02bd
00000100: 13ef 0a3e 2248 533c 9c79 873b 13f9 653d
00000110: ca6c 033c b885 1e3e 97d1 cc3d 10e9 903d
00000120: d8ea 52bd 58ce 1cbd 7f09 5eba d8cc bdbb
00000130: 92f2 103e f86d 3b3c 7b71 b03d 1daa 723d
00000140: dad4 00be ef7f a23d 2671 c03d 83c5 f63c
00000150: 26e4 ac3d 0137 a6bd 84a0 90bd cb4f 773d
00000160: 82cb 9abd d229 edbd eb6e 813c cc26 4e3d
00000170: bb2a 913c 8375 163e c651 f5bd 49cd f1bc
00000180: 0542 cd3c 2250 b6bd fd16 d53d e76e 0dbe
00000190: e0f9 5dbd ac64 0b3b 4a4f 85bd 0f71 63bd
000001a0: 8569 5ebd 93ee b9bb 08e6 193c 255d cbbd
000001b0: f26b 8e3d 2f09 d1bc fc7d c5ba aa74 f53b
000001c0: 44f3 193e 8c4a 21bb 79b4 4fbd a477 833c
000001d0: 218c 413d ca9d 063d a5eb 46be ec20 c4bc
000001e0: 97e3 b8bd 4c66 0f3d 143d 5a3d e7ac 19be
000001f0: df98 52bd 7205 67bc 2adb 883d 18dd 41bd
00000200: 46ef 20be c373 bcbc d938 d2bd d345 eebd
00000210: 63a9 c83c 399c d5bd f6f5 e4bc 220d 3ebe
00000220: 4ecf 643d b73d c6ba d3ab 063b 1cf8 0b3e
00000230: b3d5 a5bd 9b1d 9dbd 73dd a03d 1776 eabd
00000240: 2f6d 113b 1a95 91ba 686b 4cbd e640 cc3d
00000250: e234 27bd 565d 6b3c df67 8f3c 34ee 923d
00000260: d4e3 46bd b85a 06bd 7bd9 dabd 2d32 a0bd
00000270: 9326 84bd 70a5 7dbc ec94 363a 0e65 ca3c
00000280: d424 46bd 2c5c 31bc add9 1cbe 92b1 223d
00000290: 3cc1 473d 46f2 9cbd 50d8 9f3d fe26 333c
000002a0: 8625 6bbd 96a9 46bd 1ddd 403d 8f8b 093a
000002b0: b666 cfbc de51 2d3b b49a aa3d 6580 4cbd
000002c0: 7139 18be b8a7 9e3c 7301 c63d 492c c23c
000002d0: dcf0 1a3b 0f8b fcbc 9907 24bd 9e17 1e3e
000002e0: a079 fa3b 0a6a db3b 27c9 623d 1224 28bd
000002f0: 7d83 9e3d 9a40 433d a339 4cbb 3807 923c
00000300: 2503 3d3b ea6c 98ba 4300 0b3e 125e 95bc
00000310: de5f 833d 5b4e c4bc e1d6 00be dc00 94bd
00000320: ee86 a93c f7e3 43bd fe02 9a3b 90dc 203d
00000330: 5b7f 0c3b 00af ff3d 2294 bfbc 633b febd
00000340: 62af c13b 9062 443d e039 2f3d d6ec 20bd
00000350: 4941 99bd 2f97 b63c b833 113d 2bb3 0c3d
00000360: 2f73 a63b f39f 91bd c6b4 f6bc a0dd 38bd
00000370: 85c2 7fbb 3db0 bf3d 8e10 153c 90ad 1cb9
00000380: 8e8c 023d 5bc9 9ebc 8199 51bd 4a08 a7bd
00000390: 932d a43d 1b9d 54bd f049 12bd ce06 b3bc
000003a0: 6c4b 4dbd 1018 0e3e cbd2 ebbd ec87 34bd
000003b0: e7cf d53c 075d 86bd 14cd 6dbd db69 d6bc
000003c0: 895a 53bd e3af 71bc d298 d5bd 47bd aa3d
000003d0: 1340 5dbd 9538 1dbc 8c13 79bb 4d44 9dbd
000003e0: 5369 443d 08de 0dbd fe20 14be 2869 553c
000003f0: 94e8 1e3c 22df 0c3b a539 993c 61d4 893c
-0.021075826 0.017926598 0.061463818 -0.07404771 0.0060324147 -0.088083655 -0.11971739 -0.05388577
-0.051394515 -0.070931114 -0.00028953166 -0.029819148 0.040338706 -0.037848547 0.019281039 0.02113239
-0.027962478 -0.028072601 0.016145637 -0.22777133 -0.0039531505 -0.061985094 -0.038579185 -0.046892133
-0.00019475957 0.19610202 0.06717904 0.11357106 0.0879541 -0.04662613 0.050947353 0.009020111
-0.0021863927 0.0042346017 -0.024238462 0.012098089 -0.1453126 0.007098691 0.01262613 -0.06288484
0.1597222 -0.008678289 -0.0035519162 -0.012862361 -0.05005352 0.053415105 0.036468722 0.082470946
0.107452385 0.0027672593 0.06898645 -0.17371225 0.09135026 -0.0055207703 0.04193795 -0.12266001
0.17276792 -0.0039598024 -0.11819382 -0.040368043 -0.0027407852 -0.10050744 0.020984853 -0.03175848
0.13567762 0.012895616 0.00413437 0.05614574 0.008021543 0.15480697 0.100009136 0.07075703
-0.051493496 -0.038282722 -0.0008470043 -0.0057922415 0.14155033 0.011439793 0.08615395 0.059244264
-0.12581196 0.07934558 0.09396581 0.030123478 0.08441953 -0.0811596 -0.07061866 0.06037883
-0.07558347 -0.11580242 0.01579996 0.05032997 0.01772057 0.14693265 -0.11978488 -0.029516833
0.025055895 -0.08902003 0.10404775 -0.13811837 -0.054193377 0.0021269722 -0.06509264 -0.055527743
-0.05429985 -0.005674192 0.009393223 -0.09929875 0.06954183 -0.025517074 -0.0015067453 0.007490714
0.15034205 -0.0024611084 -0.05070922 0.01604826 0.047252778 0.032865323 -0.19425829 -0.02394148
-0.09027784 0.035009667 0.053280905 -0.15007363 -0.05141532 -0.014100419 0.06682427 -0.047329992
-0.15716276 -0.023004418 -0.10264749 -0.11634412 0.024494832 -0.10430188 -0.027949315 -0.18559697
0.055861764 -0.0015124594 0.0020549193 0.13668865 -0.080974005 -0.076716624 0.07854738 -0.11448305
0.0022190323 -0.0011107058 -0.049907118 0.09973316 -0.040821917 0.014365515 0.017505584 0.0717434
-0.048557118 -0.03280136 -0.10686012 -0.0782207 -0.0645267 -0.015481338 0.000696494 0.02470639
-0.048374966 -0.010825198 -0.15317412 0.039720125 0.048768267 -0.076633975 0.0780493 0.010934589
-0.057408832 -0.048501574 0.04708587 0.0005246931 -0.025317531 0.0026446502 0.083302885 -0.049927134
-0.14865662 0.019367084 0.09668245 0.023702757 0.0023642099 -0.030828027 -0.04004631 0.15438697
0.0076438934 0.0066959905 0.055367615 -0.041050024 0.07739923 0.04766903 -0.0031162284 0.017825708
0.0028840986 -0.0011629139 0.13574319 -0.018233333 0.064147696 -0.023963144 -0.1258197 -0.072267264
0.020694222 -0.047824826 0.0047000637 0.039272845 0.0021438214 0.124845505 -0.023386065 -0.12413671
0.0059108 0.04794556 0.042779803 -0.039288364 -0.07483155 0.022288887 0.035449713 0.034350555
0.005079649 -0.07110586 -0.030115496 -0.045133233 -0.0039025855 0.09359787 0.009098185 -0.00014941976
0.031872325 -0.019383123 -0.051171783 -0.08155878 0.08016505 -0.05190764 -0.035715044 -0.02185383
-0.050120756 0.13876367 -0.11514815 -0.044074938 0.026100112 -0.06560712 -0.058056906 -0.026173523
-0.051600013 -0.014751407 -0.10429539 0.08336883 -0.054016184 -0.00959601 -0.0038006036 -0.07679043
0.047952008 -0.034635574 -0.1446571 0.0130255595 0.009699006 0.0021495302 0.018704245 0.016824903

layers.1.att_src f4 [1, 1, 7]
00000000: cc6a ed3d 0e61 c33d d89a 573c 87ec fb3e
00000010: cff5 21bf ae34 0b3f 2692 8a3c
0.115926355 0.09539996 0.013159476 0.49203894 -0.632657 0.5437726 0.016915392

layers.1.att_dst f4 [1, 1, 7]
00000000: 7821 413f 507f b33d 59a4 303f 3bdf 023a
00000010: 10b4 193e dd8e 11be 839e 253e
0.75441694 0.08764517 0.69000775 0.00049923704 0.15010095 -0.14214654 0.16173749

layers.1.bias f4 [7]
00000000: a7cb 3b3d 8b5a c63d 0dcb 00bd 0004 a2bc
00000010: 6d53 34bd 314a 91bd 77df bd3c
0.045848515 0.096852385 -0.031443644 -0.019777298 -0.044024874 -0.07094229 0.023177845

layers.1.lin_src.weight f4 [7, 64]
00000000: 01dc e63d 1fe2 22be e057 9c3e b851 5bbe
00000010: d682 643e 60f8 93be 3215 d03e 8b75 e4bc
00000020: d0b5 c2be cdf4 993e 7eb7 d5be 51f2 2fbe
00000030: 553c 843e 420a 833b e472 1dbe 992c 7e3e
00000040: fe0f 893e e069 0cbe 0407 97be 8c2a 72be
00000050: a610 a0be 2b61 1bbe 054d cdbe a95b d23e
00000060: 9649 373b d706 f23d b99b 51be 6d1f 7a3d
00000070: 5942 9a3e f99a 3e3e 297a f43c 0d68 c1be
00000080: e9e0 a73e 7a32 83be df13 1c3d 7c48 833e
00000090: 819c bebd 3a22 903e edc9 083e 8fef 4fbe
000000a0: 003b 11be b336 523e 8008 bfbd 88c9 83be
000000b0: b3b6 95be 50c5 8c3e 57ef 66be 2dde ccbd
000000c0: e07e 603e aaa9 72bd 4247 683e b985 233e
000000d0: 65a9 263d 68af 2e3e d92c d13e 6af1 89be
000000e0: e595 c83e c39c 95be 358b 043e 9e12 5abe
000000f0: 561c d03e e5e2 6bbe 297e 4bbe 74d5 5d3e
00000100: 7a66 153d 944b bfbe 76dd 5cbe 82bd 653e
00000110: b767 54be 5472 8dbe 55e6 ccbe 939f 3c3e
00000120: 9981 9e3e 138e 03be 9a82 57bc b69a 3e3e
00000130: 516c 8dbe ca10 f53d 4ab8 83be 0efd 82be
00000140: d2af 493e be4f 71bd 6d6c 9abc a552 383e
00000150: 5025 963c faae 893e 5f7a 053e 6e6c 20be
00000160: fe6a c23c 75a3 39be 8404 c9be 6958 813e
00000170: f48a 0e3e 99ac 62be e386 19be 53d3 9e3e
00000180: d820 923d 559d 3d3d 4017 a5be d4b5 babe
00000190: eace 60be 5237 35be 99f7 713e 1836 bdbe
000001a0: ab03 153e 2409 c53c 84ef 8bbe a5b1 ecbe
000001b0: ca98 99be 8efd 383e aac6 7e3e 1f39 943e
000001c0: 091b 6ebe e009 b83e b8fe abbe 5636 1ebe
000001d0: f16b 9fbe bb7d cdbd 6bd3 05be 72ba bfbe
000001e0: e37f 523e a28c acbe 0885 30be d102 c8bd
000001f0: 1148 e8bd bcc5 74bd 8844 1a3e 74ea 863e
00000200: add2 a4bc 4079 223e 70aa c13e 8c89 343e
00000210: a414 74be d6aa c3be f5d2 9ebe f21e a93e
00000220: 92e5 7ebe 1aeb 8cbe bf48 b0bd 4133 6ebe
00000230: 4892 b13e 3f5c 673e a2e9 a83e 2235 b9bd
00000240: e764 0cbe c570 86be 9a84 803d ea57 613e
00000250: cae3 0fbe 48ea 2dbe 499b 2dbe c2fb 3ebe
00000260: c657 a7be 5f55 c3bb 3e3e cb3d adba 9a3e
00000270: 3f7d ebbe 5aa1 90be d31e bb3e 244f 24bc
00000280: a3d2 d7bd 53cf 85bd db1b 293e 2243 ebbd
00000290: 20c8 1b3e a6fd fe3b 73c7 9ebe 88a9 d1bd
000002a0: 7318 c0be dc24 eabe b90b 5e3e 67dc 84be
000002b0: 65b3 0c3d fadc 13bd 362b 5e3e 7df2 ca3e
000002c0: 6c2e 2ebe 7a78 613e ed24 a83d 88e4 663d
000002d0: 8c99 c73d dedb 383e 672e 9a3e 93ad 923d
000002e0: 6343 2ebe 89a6 95be 8056 7b3e 34ef 5cbe
000002f0: 2caf 59be 5c85 9dbe 22b1 8a3e d3ea c7be
00000300: fb71 8dbe 5d44 983e b5aa 353e 843d 9cbe
00000310: ff7a 113e 34c6 f83d c5b8 cbbd f3ed 96be
00000320: c418 463c 36e1 263e 24c2 663e 6240 46be
00000330: 9ffd 3a3e 9d5a 46be 873c 88be 3a0d 0bbe
00000340: 1a0e 493e 3aa1 a53e 3a1c 933e 87b3 c8be
00000350: 03f0 513e 9e54 923e 0711 49bb 6478 92bd
00000360: fbdd 3c3e a5fe 83be 0881 c5bd 6e0e b1be
00000370: 589d 833e b0d7 ab3d 3d1e 3abe 37f8 c4bd
00000380: 7318 fc3d 1809 f2bd 0a4a 02be 3eff 293e
00000390: 2c4a f43d c855 3abe aa3a 1cbe 166f 913e
000003a0: 8af0 f9bb fa52 6cbe 89bd cb3c d619 00bc
000003b0: fe15 a83e 7036 163e 33e9 3cbd b70e 5dbd
000003c0: c1f1 423d 920b 45be 5f46 c7bd ff14 763c
000003d0: b405 8e3e cf3c 56be 0759 893e 4131 ef3d
000003e0: 8bc8 3e3d 8152 72bd eac6 11bc 7ee4 c93d
000003f0: b980 0d3e 88bd e6be 8aaf 6a3e 5c23 4cbe
0.11272431 -0.15906571 0.30535793 -0.21417892 0.22315535 -0.28900433 0.4064117 -0.02788808
-0.38029337 0.3006958 -0.41741556 -0.1718228 0.2582728 0.0039990256 -0.15375859 0.248217
0.26770014 -0.13712263 -0.2949754 -0.23649043 -0.31262702 -0.15173785 -0.40097824 0.41085556
0.0027967445 0.11817711 -0.2046956 0.061065126 0.30128744 0.18613805 0.029843407 -0.37774697
0.3278878 -0.25624448 0.038104888 0.2564124 -0.093071945 0.28151113 0.13358279 -0.20306228
-0.14182663 0.20528679 -0.09327793 -0.25739694 -0.2924095 0.27494287 -0.22552238 -0.10003314
0.21923399 -0.059243836 0.22683433 0.1596898 0.04068889 0.170591 0.4085453 -0.26941997
0.3917686 -0.29221162 0.12943728 -0.21296164 0.4064662 -0.23035772 -0.19872345 0.21663457
0.036474682 -0.3736235 -0.21568856 0.22435573 -0.20742689 -0.27626288 -0.4001948 0.18420248
0.3095825 -0.12847166 -0.013153696 0.18613705 -0.276217 0.11966093 -0.2572654 -0.2558369
0.19695976 -0.05891394 -0.01885053 0.18000276 0.018328339 0.2689131 0.13034962 -0.15666363
0.023732658 -0.1812876 -0.39261258 0.25262764 0.13920194 -0.22136153 -0.14992861 0.31020603
0.07135171 0.04629262 -0.322443 -0.3646685 -0.21953931 -0.17696884 0.23629607 -0.36955333
0.1455218 0.02405221 -0.27331173 -0.46229282 -0.2999938 0.18065473 0.24880472 0.2894983
-0.232525 0.35945034 -0.33592772 -0.15450415 -0.3113704 -0.10033747 -0.13068931 -0.37446934
0.20556597 -0.33701044 -0.17238247 -0.09766162 -0.113418706 -0.059758887 0.15065205 0.2635075
-0.02011999 0.15866566 0.37825346 0.17630595 -0.23835999 -0.38216275 -0.31020322 0.33031422
-0.24892262 -0.27523118 -0.08607625 -0.2326174 0.34681916 0.22593783 0.32990748 -0.090433374
-0.13710366 -0.2625791 0.06275292 0.22006193 -0.14051738 -0.16983902 -0.16953768 -0.18650725
-0.32684153 -0.0059611048 0.09923981 0.30220547 -0.45993993 -0.282481 0.36546955 -0.010028634
-0.10538223 -0.065336846 0.16514532 -0.11487414 0.1521306 0.007781702 -0.31011543 -0.10237414
-0.37518653 -0.45731246 0.2168416 -0.25949404 0.03435077 -0.03609941 0.21696171 0.3963813
-0.17009896 0.22018614 0.08210168 0.056370288 0.097460836 0.18052623 0.30113527 0.07162013
-0.17017893 -0.2922862 0.24544716 -0.21575624 -0.21258229 -0.30765808 0.27088267 -0.39046344
-0.27626023 0.29739657 0.17740901 -0.30515683 0.14207076 0.12147179 -0.09947351 -0.29478416
0.0120908655 0.16296849 0.22534996 -0.19360498 0.18260811 -0.19370504 -0.2660868 -0.13579264
0.19634286 0.3234957 0.28732473 -0.39199468 0.20501713 0.28580183 -0.0030680315 -0.07151869
0.18444054 -0.25780216 -0.096437514 -0.3458132 0.2570598 0.083907485 -0.18175597 -0.09617656
0.12309351 -0.11818141 -0.12723556 0.16601273 0.1192821 -0.18196785 -0.15256754 0.28405064
-0.0076275514 -0.23078528 0.02487065 -0.00781866 0.3282928 0.14669204 -0.046120834 -0.05396911
0.047593836 -0.19242695 -0.09730219 0.015019654 0.27738726 -0.20921634 0.26825735 0.11679316
0.04657797 -0.059160713 -0.008897522 0.098580346 0.13818635 -0.45066476 0.22918525 -0.19935364

layers.1.lin_dst.weight f4 [7, 64]
00000000: 01dc e63d 1fe2 22be e057 9c3e b851 5bbe
00000010: d682 643e 60f8 93be 3215 d03e 8b75 e4bc
00000020: d0b5 c2be cdf4 993e 7eb7 d5be 51f2 2fbe
00000030: 553c 843e 420a 833b e472 1dbe 992c 7e3e
00000040: fe0f 893e e069 0cbe 0407 97be 8c2a 72be
00000050: a610 a0be 2b61 1bbe 054d cdbe a95b d23e
00000060: 9649 373b d706 f23d b99b 51be 6d1f 7a3d
00000070: 5942 9a3e f99a 3e3e 297a f43c 0d68 c1be
00000080: e9e0 a73e 7a32 83be df13 1c3d 7c48 833e
00000090: 819c bebd 3a22 903e edc9 083e 8fef 4fbe
000000a0: 003b 11be b336 523e 8008 bfbd 88c9 83be
000000b0: b3b6 95be 50c5 8c3e 57ef 66be 2dde ccbd
000000c0: e07e 603e aaa9 72bd 4247 683e b985 233e
000000d0: 65a9 263d 68af 2e3e d92c d13e 6af1 89be
000000e0: e595 c83e c39c 95be 358b 043e 9e12 5abe
000000f0: 561c d03e e5e2 6bbe 297e 4bbe 74d5 5d3e
00000100: 7a66 153d 944b bfbe 76dd 5cbe 82bd 653e
00000110: b767 54be 5472 8dbe 55e6 ccbe 939f 3c3e
00000120: 9981 9e3e 138e 03be 9a82 57bc b69a 3e3e
00000130: 516c 8dbe ca10 f53d 4ab8 83be 0efd 82be
00000140: d2af 493e be4f 71bd 6d6c 9abc a552 383e
00000150: 5025 963c faae 893e 5f7a 053e 6e6c 20be
00000160: fe6a c23c 75a3 39be 8404 c9be 6958 813e
00000170: f48a 0e3e 99ac 62be e386 19be 53d3 9e3e
00000180: d820 923d 559d 3d3d 4017 a5be d4b5 babe
00000190: eace 60be 5237 35be 99f7 713e 1836 bdbe
000001a0: ab03 153e 2409 c53c 84ef 8bbe a5b1 ecbe
000001b0: ca98 99be 8efd 383e aac6 7e3e 1f39 943e
000001c0: 091b 6ebe e009 b83e b8fe abbe 5636 1ebe
000001d0: f16b 9fbe bb7d cdbd 6bd3 05be 72ba bfbe
000001e0: e37f 523e a28c acbe 0885 30be d102 c8bd
000001f0: 1148 e8bd bcc5 74bd 8844 1a3e 74ea 863e
00000200: add2 a4bc 4079 223e 70aa c13e 8c89 343e
00000210: a414 74be d6aa c3be f5d2 9ebe f21e a93e
00000220: 92e5 7ebe 1aeb 8cbe bf48 b0bd 4133 6ebe
00000230: 4892 b13e 3f5c 673e a2e9 a83e 2235 b9bd
00000240: e764 0cbe c570 86be 9a84 803d ea57 613e
00000250: cae3 0fbe 48ea 2dbe 499b 2dbe c2fb 3ebe
00000260: c657 a7be 5f55 c3bb 3e3e cb3d adba 9a3e
00000270: 3f7d ebbe 5aa1 90be d31e bb3e 244f 24bc
00000280: a3d2 d7bd 53cf 85bd db1b 293e 2243 ebbd
00000290: 20c8 1b3e a6fd fe3b 73c7 9ebe 88a9 d1bd
000002a0: 7318 c0be dc24 eabe b90b 5e3e 67dc 84be
000002b0: 65b3 0c3d fadc 13bd 362b 5e3e 7df2 ca3e
000002c0: 6c2e 2ebe 7a78 613e ed24 a83d 88e4 663d
000002d0: 8c99 c73d dedb 383e 672e 9a3e 93ad 923d
000002e0: 6343 2ebe 89a6 95be 8056 7b3e 34ef 5cbe
000002f0: 2caf 59be 5c85 9dbe 22b1 8a3e d3ea c7be
00000300: fb71 8dbe 5d44 983e b5aa 353e 843d 9cbe
00000310: ff7a 113e 34c6 f83d c5b8 cbbd f3ed 96be
00000320: c418 463c 36e1 263e 24c2 663e 6240 46be
00000330: 9ffd 3a3e 9d5a 46be 873c 88be 3a0d 0bbe
00000340: 1a0e 493e 3aa1 a53e 3a1c 933e 87b3 c8be
00000350: 03f0 513e 9e54 923e 0711 49bb 6478 92bd
00000360: fbdd 3c3e a5fe 83be 0881 c5bd 6e0e b1be
00000370: 589d 833e b0d7 ab3d 3d1e 3abe 37f8 c4bd
00000380: 7318 fc3d 1809 f2bd 0a4a 02be 3eff 293e
00000390: 2c4a f43d c855 3abe aa3a 1cbe 166f 913e
000003a0: 8af0 f9bb fa52 6cbe 89bd cb3c d619 00bc
000003b0: fe15 a83e 7036 163e 33e9 3cbd b70e 5dbd
000003c0: c1f1 423d 920b 45be 5f46 c7bd ff14 763c
000003d0: b405 8e3e cf3c 56be 0759 893e 4131 ef3d
000003e0: 8bc8 3e3d 8152 72bd eac6 11bc 7ee4 c93d
000003f0: b980 0d3e 88bd e6be 8aaf 6a3e 5c23 4cbe
0.11272431 -0.15906571 0.30535793 -0.21417892 0.22315535 -0.28900433 0.4064117 -0.02788808
-0.38029337 0.3006958 -0.41741556 -0.1718228 0.2582728 0.0039990256 -0.15375859 0.248217
0.26770014 -0.13712263 -0.2949754 -0.23649043 -0.31262702 -0.15173785 -0.40097824 0.41085556
0.0027967445 0.11817711 -0.2046956 0.061065126 0.30128744 0.18613805 0.029843407 -0.37774697
0.3278878 -0.25624448 0.038104888 0.2564124 -0.093071945 0.28151113 0.13358279 -0.20306228
-0.14182663 0.20528679 -0.09327793 -0.25739694 -0.2924095 0.27494287 -0.22552238 -0.10003314
0.21923399 -0.059243836 0.22683433 0.1596898 0.04068889 0.170591 0.4085453 -0.26941997
0.3917686 -0.29221162 0.12943728 -0.21296164 0.4064662 -0.23035772 -0.19872345 0.21663457
0.036474682 -0.3736235 -0.21568856 0.22435573 -0.20742689 -0.27626288 -0.4001948 0.18420248
0.3095825 -0.12847166 -0.013153696 0.18613705 -0.276217 0.11966093 -0.2572654 -0.2558369
0.19695976 -0.05891394 -0.01885053 0.18000276 0.018328339 0.2689131 0.13034962 -0.15666363
0.023732658 -0.1812876 -0.39261258 0.25262764 0.13920194 -0.22136153 -0.14992861 0.31020603
0.07135171 0.04629262 -0.322443 -0.3646685 -0.21953931 -0.17696884 0.23629607 -0.36955333
0.1455218 0.02405221 -0.27331173 -0.46229282 -0.2999938 0.18065473 0.24880472 0.2894983
-0.232525 0.35945034 -0.33592772 -0.15450415 -0.3113704 -0.10033747 -0.13068931 -0.37446934
0.20556597 -0.33701044 -0.17238247 -0.09766162 -0.113418706 -0.059758887 0.15065205 0.2635075
-0.02011999 0.15866566 0.37825346 0.17630595 -0.23835999 -0.38216275 -0.31020322 0.33031422
-0.24892262 -0.27523118 -0.08607625 -0.2326174 0.34681916 0.22593783 0.32990748 -0.090433374
-0.13710366 -0.2625791 0.06275292 0.22006193 -0.14051738 -0.16983902 -0.16953768 -0.18650725
-0.32684153 -0.0059611048 0.09923981 0.30220547 -0.45993993 -0.282481 0.36546955 -0.010028634
-0.10538223 -0.065336846 0.16514532 -0.11487414 0.1521306 0.007781702 -0.31011543 -0.10237414
-0.37518653 -0.45731246 0.2168416 -0.25949404 0.03435077 -0.03609941 0.21696171 0.3963813
-0.17009896 0.22018614 0.08210168 0.056370288 0.097460836 0.18052623 0.30113527 0.07162013
-0.17017893 -0.2922862 0.24544716 -0.21575624 -0.21258229 -0.30765808 0.27088267 -0.39046344
-0.27626023 0.29739657 0.17740901 -0.30515683 0.14207076 0.12147179 -0.09947351 -0.29478416
0.0120908655 0.16296849 0.22534996 -0.19360498 0.18260811 -0.19370504 -0.2660868 -0.13579264
0.19634286 0.3234957 0.28732473 -0.39199468 0.20501713 0.28580183 -0.0030680315 -0.07151869
0.18444054 -0.25780216 -0.096437514 -0.3458132 0.2570598 0.083907485 -0.18175597 -0.09617656
0.12309351 -0.11818141 -0.12723556 0.16601273 0.1192821 -0.18196785 -0.15256754 0.28405064
-0.0076275514 -0.23078528 0.02487065 -0.00781866 0.3282928 0.14669204 -0.046120834 -0.05396911
0.047593836 -0.19242695 -0.09730219 0.015019654 0.27738726 -0.20921634 0.26825735 0.11679316
0.04657797 -0.059160713 -0.008897522 0.098580346 0.13818635 -0.45066476 0.22918525 -0.19935364
